…
I0218 05:07:56.300809   246 net.cpp:322] The NetState phase (0) differed from the phase (1) specified by a rule in layer accuracy
I0218 05:07:56.300900   246 net.cpp:58] Initializing net from parameters: 
name: "LeNet32x40_3"
state {
  phase: TRAIN
  level: 0
  stage: ""
}
layer {
  name: "nexpa"
  type: "Data"
  top: "data1"
  top: "label"
  include {
    phase: TRAIN
  }
  transform_param {
    scale: 0.00390625
    mirror: true
  }
  data_param {
    source: "/workspace/parkingclassifier-caffe/20200218_data/20200218_data_train_lmdb"
    batch_size: 64
    backend: LMDB
  }
}
layer {
  name: "conv1"
  type: "Convolution"
  bottom: "data1"
  top: "conv_blob1"
  convolution_param {
    num_output: 50
    bias_term: true
    kernel_size: 3
    group: 1
    stride: 1
    weight_filler {
      type: "xavier"
    }
    bias_filler {
      type: "constant"
    }
    dilation: 1
  }
}
layer {
  name: "relu1"
  type: "ReLU"
  bottom: "conv_blob1"
  top: "relu_blob1"
}
layer {
  name: "conv2"
  type: "Convolution"
  bottom: "relu_blob1"
  top: "conv_blob2"
  convolution_param {
    num_output: 50
    bias_term: true
    kernel_size: 3
    group: 1
    stride: 1
    weight_filler {
      type: "xavier"
    }
    bias_filler {
      type: "constant"
    }
    dilation: 1
  }
}
layer {
  name: "relu2"
  type: "ReLU"
  bottom: "conv_blob2"
  top: "relu_blob2"
}
layer {
  name: "max_pool1"
  type: "Pooling"
  bottom: "relu_blob2"
  top: "max_pool_blob1"
  pooling_param {
    pool: MAX
    kernel_size: 2
    stride: 2
  }
}
layer {
  name: "conv3"
  type: "Convolution"
  bottom: "max_pool_blob1"
  top: "conv_blob3"
  convolution_param {
    num_output: 28
    bias_term: true
    kernel_size: 3
    group: 1
    stride: 1
    weight_filler {
      type: "xavier"
    }
    bias_filler {
      type: "constant"
    }
    dilation: 1
  }
}
layer {
  name: "relu3"
  type: "ReLU"
  bottom: "conv_blob3"
  top: "relu_blob3"
}
layer {
  name: "conv4"
  type: "Convolution"
  bottom: "relu_blob3"
  top: "conv_blob4"
  convolution_param {
    num_output: 28
    bias_term: true
    kernel_size: 3
    group: 1
    stride: 1
    weight_filler {
      type: "xavier"
    }
    bias_filler {
      type: "constant"
    }
    dilation: 1
  }
}
layer {
  name: "relu4"
  type: "ReLU"
  bottom: "conv_blob4"
  top: "relu_blob4"
}
layer {
  name: "max_pool2"
  type: "Pooling"
  bottom: "relu_blob4"
  top: "max_pool_blob2"
  pooling_param {
    pool: MAX
    kernel_size: 2
    stride: 2
  }
}
layer {
  name: "fc1"
  type: "InnerProduct"
  bottom: "max_pool_blob2"
  top: "fc_blob1"
  inner_product_param {
    num_output: 256
    bias_term: true
    weight_filler {
      type: "xavier"
    }
    bias_filler {
      type: "constant"
    }
  }
}
layer {
  name: "relu5"
  type: "ReLU"
  bottom: "fc_blob1"
  top: "relu_blob5"
}
layer {
  name: "fc2"
  type: "InnerProduct"
  bottom: "relu_blob5"
  top: "fc_blob2"
  inner_product_param {
    num_output: 84
    bias_term: true
    weight_filler {
      type: "xavier"
    }
    bias_filler {
      type: "constant"
    }
  }
}
layer {
  name: "relu6"
  type: "ReLU"
  bottom: "fc_blob2"
  top: "relu_blob6"
}
layer {
  name: "fc3"
  type: "InnerProduct"
  bottom: "relu_blob6"
  top: "fc_blob3"
  inner_product_param {
    num_output: 2
    bias_term: true
    weight_filler {
      type: "xavier"
    }
    bias_filler {
      type: "constant"
    }
  }
}
layer {
  name: "loss"
  type: "SoftmaxWithLoss"
  bottom: "fc_blob3"
  bottom: "label"
  top: "loss"
}
I0218 05:07:56.300971   246 layer_factory.hpp:77] Creating layer nexpa
I0218 05:07:56.301144   246 net.cpp:100] Creating Layer nexpa
I0218 05:07:56.301154   246 net.cpp:408] nexpa -> data1
I0218 05:07:56.301172   246 net.cpp:408] nexpa -> label
I0218 05:07:56.302947   248 db_lmdb.cpp:35] Opened lmdb /workspace/parkingclassifier-caffe/20200218_data/20200218_data_train_lmdb
I0218 05:07:56.303041   246 data_layer.cpp:41] output data size: 64,1,32,40
I0218 05:07:56.303674   246 net.cpp:150] Setting up nexpa
I0218 05:07:56.303704   246 net.cpp:157] Top shape: 64 1 32 40 (81920)
I0218 05:07:56.303709   246 net.cpp:157] Top shape: 64 (64)
I0218 05:07:56.303712   246 net.cpp:165] Memory required for data: 327936
I0218 05:07:56.303719   246 layer_factory.hpp:77] Creating layer conv1
I0218 05:07:56.303735   246 net.cpp:100] Creating Layer conv1
I0218 05:07:56.303740   246 net.cpp:434] conv1 <- data1
I0218 05:07:56.303750   246 net.cpp:408] conv1 -> conv_blob1
I0218 05:07:56.303786   246 net.cpp:150] Setting up conv1
I0218 05:07:56.303791   246 net.cpp:157] Top shape: 64 50 30 38 (3648000)
I0218 05:07:56.303795   246 net.cpp:165] Memory required for data: 14919936
I0218 05:07:56.303804   246 layer_factory.hpp:77] Creating layer relu1
I0218 05:07:56.303810   246 net.cpp:100] Creating Layer relu1
I0218 05:07:56.303814   246 net.cpp:434] relu1 <- conv_blob1
I0218 05:07:56.303818   246 net.cpp:408] relu1 -> relu_blob1
I0218 05:07:56.303827   246 net.cpp:150] Setting up relu1
I0218 05:07:56.303830   246 net.cpp:157] Top shape: 64 50 30 38 (3648000)
I0218 05:07:56.303833   246 net.cpp:165] Memory required for data: 29511936
I0218 05:07:56.303836   246 layer_factory.hpp:77] Creating layer conv2
I0218 05:07:56.303843   246 net.cpp:100] Creating Layer conv2
I0218 05:07:56.303846   246 net.cpp:434] conv2 <- relu_blob1
I0218 05:07:56.303851   246 net.cpp:408] conv2 -> conv_blob2
I0218 05:07:56.304003   246 net.cpp:150] Setting up conv2
I0218 05:07:56.304008   246 net.cpp:157] Top shape: 64 50 28 36 (3225600)
I0218 05:07:56.304013   246 net.cpp:165] Memory required for data: 42414336
I0218 05:07:56.304018   246 layer_factory.hpp:77] Creating layer relu2
I0218 05:07:56.304023   246 net.cpp:100] Creating Layer relu2
I0218 05:07:56.304026   246 net.cpp:434] relu2 <- conv_blob2
I0218 05:07:56.304030   246 net.cpp:408] relu2 -> relu_blob2
I0218 05:07:56.304035   246 net.cpp:150] Setting up relu2
I0218 05:07:56.304039   246 net.cpp:157] Top shape: 64 50 28 36 (3225600)
I0218 05:07:56.304042   246 net.cpp:165] Memory required for data: 55316736
I0218 05:07:56.304045   246 layer_factory.hpp:77] Creating layer max_pool1
I0218 05:07:56.304049   246 net.cpp:100] Creating Layer max_pool1
I0218 05:07:56.304052   246 net.cpp:434] max_pool1 <- relu_blob2
I0218 05:07:56.304056   246 net.cpp:408] max_pool1 -> max_pool_blob1
I0218 05:07:56.304070   246 net.cpp:150] Setting up max_pool1
I0218 05:07:56.304075   246 net.cpp:157] Top shape: 64 50 14 18 (806400)
I0218 05:07:56.304077   246 net.cpp:165] Memory required for data: 58542336
I0218 05:07:56.304080   246 layer_factory.hpp:77] Creating layer conv3
I0218 05:07:56.304086   246 net.cpp:100] Creating Layer conv3
I0218 05:07:56.304090   246 net.cpp:434] conv3 <- max_pool_blob1
I0218 05:07:56.304093   246 net.cpp:408] conv3 -> conv_blob3
I0218 05:07:56.304183   246 net.cpp:150] Setting up conv3
I0218 05:07:56.304188   246 net.cpp:157] Top shape: 64 28 12 16 (344064)
I0218 05:07:56.304191   246 net.cpp:165] Memory required for data: 59918592
I0218 05:07:56.304198   246 layer_factory.hpp:77] Creating layer relu3
I0218 05:07:56.304201   246 net.cpp:100] Creating Layer relu3
I0218 05:07:56.304204   246 net.cpp:434] relu3 <- conv_blob3
I0218 05:07:56.304209   246 net.cpp:408] relu3 -> relu_blob3
I0218 05:07:56.304214   246 net.cpp:150] Setting up relu3
I0218 05:07:56.304219   246 net.cpp:157] Top shape: 64 28 12 16 (344064)
I0218 05:07:56.304224   246 net.cpp:165] Memory required for data: 61294848
I0218 05:07:56.304236   246 layer_factory.hpp:77] Creating layer conv4
I0218 05:07:56.304244   246 net.cpp:100] Creating Layer conv4
I0218 05:07:56.304248   246 net.cpp:434] conv4 <- relu_blob3
I0218 05:07:56.304252   246 net.cpp:408] conv4 -> conv_blob4
I0218 05:07:56.304309   246 net.cpp:150] Setting up conv4
I0218 05:07:56.304313   246 net.cpp:157] Top shape: 64 28 10 14 (250880)
I0218 05:07:56.304316   246 net.cpp:165] Memory required for data: 62298368
I0218 05:07:56.304320   246 layer_factory.hpp:77] Creating layer relu4
I0218 05:07:56.304324   246 net.cpp:100] Creating Layer relu4
I0218 05:07:56.304327   246 net.cpp:434] relu4 <- conv_blob4
I0218 05:07:56.304332   246 net.cpp:408] relu4 -> relu_blob4
I0218 05:07:56.304337   246 net.cpp:150] Setting up relu4
I0218 05:07:56.304342   246 net.cpp:157] Top shape: 64 28 10 14 (250880)
I0218 05:07:56.304344   246 net.cpp:165] Memory required for data: 63301888
I0218 05:07:56.304347   246 layer_factory.hpp:77] Creating layer max_pool2
I0218 05:07:56.304353   246 net.cpp:100] Creating Layer max_pool2
I0218 05:07:56.304356   246 net.cpp:434] max_pool2 <- relu_blob4
I0218 05:07:56.304360   246 net.cpp:408] max_pool2 -> max_pool_blob2
I0218 05:07:56.304365   246 net.cpp:150] Setting up max_pool2
I0218 05:07:56.304369   246 net.cpp:157] Top shape: 64 28 5 7 (62720)
I0218 05:07:56.304373   246 net.cpp:165] Memory required for data: 63552768
I0218 05:07:56.304376   246 layer_factory.hpp:77] Creating layer fc1
I0218 05:07:56.304383   246 net.cpp:100] Creating Layer fc1
I0218 05:07:56.304385   246 net.cpp:434] fc1 <- max_pool_blob2
I0218 05:07:56.304389   246 net.cpp:408] fc1 -> fc_blob1
I0218 05:07:56.305972   246 net.cpp:150] Setting up fc1
I0218 05:07:56.305979   246 net.cpp:157] Top shape: 64 256 (16384)
I0218 05:07:56.305981   246 net.cpp:165] Memory required for data: 63618304
I0218 05:07:56.305989   246 layer_factory.hpp:77] Creating layer relu5
I0218 05:07:56.305992   246 net.cpp:100] Creating Layer relu5
I0218 05:07:56.305995   246 net.cpp:434] relu5 <- fc_blob1
I0218 05:07:56.306000   246 net.cpp:408] relu5 -> relu_blob5
I0218 05:07:56.306005   246 net.cpp:150] Setting up relu5
I0218 05:07:56.306008   246 net.cpp:157] Top shape: 64 256 (16384)
I0218 05:07:56.306011   246 net.cpp:165] Memory required for data: 63683840
I0218 05:07:56.306015   246 layer_factory.hpp:77] Creating layer fc2
I0218 05:07:56.306018   246 net.cpp:100] Creating Layer fc2
I0218 05:07:56.306021   246 net.cpp:434] fc2 <- relu_blob5
I0218 05:07:56.306028   246 net.cpp:408] fc2 -> fc_blob2
I0218 05:07:56.306160   246 net.cpp:150] Setting up fc2
I0218 05:07:56.306166   246 net.cpp:157] Top shape: 64 84 (5376)
I0218 05:07:56.306169   246 net.cpp:165] Memory required for data: 63705344
I0218 05:07:56.306174   246 layer_factory.hpp:77] Creating layer relu6
I0218 05:07:56.306176   246 net.cpp:100] Creating Layer relu6
I0218 05:07:56.306180   246 net.cpp:434] relu6 <- fc_blob2
I0218 05:07:56.306183   246 net.cpp:408] relu6 -> relu_blob6
I0218 05:07:56.306187   246 net.cpp:150] Setting up relu6
I0218 05:07:56.306190   246 net.cpp:157] Top shape: 64 84 (5376)
I0218 05:07:56.306193   246 net.cpp:165] Memory required for data: 63726848
I0218 05:07:56.306196   246 layer_factory.hpp:77] Creating layer fc3
I0218 05:07:56.306201   246 net.cpp:100] Creating Layer fc3
I0218 05:07:56.306205   246 net.cpp:434] fc3 <- relu_blob6
I0218 05:07:56.306210   246 net.cpp:408] fc3 -> fc_blob3
I0218 05:07:56.306219   246 net.cpp:150] Setting up fc3
I0218 05:07:56.306223   246 net.cpp:157] Top shape: 64 2 (128)
I0218 05:07:56.306226   246 net.cpp:165] Memory required for data: 63727360
I0218 05:07:56.306231   246 layer_factory.hpp:77] Creating layer loss
I0218 05:07:56.306236   246 net.cpp:100] Creating Layer loss
I0218 05:07:56.306239   246 net.cpp:434] loss <- fc_blob3
I0218 05:07:56.306242   246 net.cpp:434] loss <- label
I0218 05:07:56.306246   246 net.cpp:408] loss -> loss
I0218 05:07:56.306254   246 layer_factory.hpp:77] Creating layer loss
…
I0218 05:07:56.306676   246 net.cpp:322] The NetState phase (1) differed from the phase (0) specified by a rule in layer nexpa
I0218 05:07:56.306749   246 net.cpp:58] Initializing net from parameters: 
name: "LeNet32x40_3"
state {
  phase: TEST
}
layer {
  name: "nexpa"
  type: "Data"
  top: "data1"
  top: "label"
  include {
    phase: TEST
  }
  transform_param {
    scale: 0.00390625
    mirror: true
  }
  data_param {
    source: "/workspace/parkingclassifier-caffe/20200218_data/20200218_data_test_lmdb"
    batch_size: 100
    backend: LMDB
  }
}
layer {
  name: "conv1"
  type: "Convolution"
  bottom: "data1"
  top: "conv_blob1"
  convolution_param {
    num_output: 50
    bias_term: true
    kernel_size: 3
    group: 1
    stride: 1
    weight_filler {
      type: "xavier"
    }
    bias_filler {
      type: "constant"
    }
    dilation: 1
  }
}
layer {
  name: "relu1"
  type: "ReLU"
  bottom: "conv_blob1"
  top: "relu_blob1"
}
layer {
  name: "conv2"
  type: "Convolution"
  bottom: "relu_blob1"
  top: "conv_blob2"
  convolution_param {
    num_output: 50
    bias_term: true
    kernel_size: 3
    group: 1
    stride: 1
    weight_filler {
      type: "xavier"
    }
    bias_filler {
      type: "constant"
    }
    dilation: 1
  }
}
layer {
  name: "relu2"
  type: "ReLU"
  bottom: "conv_blob2"
  top: "relu_blob2"
}
layer {
  name: "max_pool1"
  type: "Pooling"
  bottom: "relu_blob2"
  top: "max_pool_blob1"
  pooling_param {
    pool: MAX
    kernel_size: 2
    stride: 2
  }
}
layer {
  name: "conv3"
  type: "Convolution"
  bottom: "max_pool_blob1"
  top: "conv_blob3"
  convolution_param {
    num_output: 28
    bias_term: true
    kernel_size: 3
    group: 1
    stride: 1
    weight_filler {
      type: "xavier"
    }
    bias_filler {
      type: "constant"
    }
    dilation: 1
  }
}
layer {
  name: "relu3"
  type: "ReLU"
  bottom: "conv_blob3"
  top: "relu_blob3"
}
layer {
  name: "conv4"
  type: "Convolution"
  bottom: "relu_blob3"
  top: "conv_blob4"
  convolution_param {
    num_output: 28
    bias_term: true
    kernel_size: 3
    group: 1
    stride: 1
    weight_filler {
      type: "xavier"
    }
    bias_filler {
      type: "constant"
    }
    dilation: 1
  }
}
layer {
  name: "relu4"
  type: "ReLU"
  bottom: "conv_blob4"
  top: "relu_blob4"
}
layer {
  name: "max_pool2"
  type: "Pooling"
  bottom: "relu_blob4"
  top: "max_pool_blob2"
  pooling_param {
    pool: MAX
    kernel_size: 2
    stride: 2
  }
}
layer {
  name: "fc1"
  type: "InnerProduct"
  bottom: "max_pool_blob2"
  top: "fc_blob1"
  inner_product_param {
    num_output: 256
    bias_term: true
    weight_filler {
      type: "xavier"
    }
    bias_filler {
      type: "constant"
    }
  }
}
layer {
  name: "relu5"
  type: "ReLU"
  bottom: "fc_blob1"
  top: "relu_blob5"
}
layer {
  name: "fc2"
  type: "InnerProduct"
  bottom: "relu_blob5"
  top: "fc_blob2"
  inner_product_param {
    num_output: 84
    bias_term: true
    weight_filler {
      type: "xavier"
    }
    bias_filler {
      type: "constant"
    }
  }
}
layer {
  name: "relu6"
  type: "ReLU"
  bottom: "fc_blob2"
  top: "relu_blob6"
}
layer {
  name: "fc3"
  type: "InnerProduct"
  bottom: "relu_blob6"
  top: "fc_blob3"
  inner_product_param {
    num_output: 2
    bias_term: true
    weight_filler {
      type: "xavier"
    }
    bias_filler {
      type: "constant"
    }
  }
}
layer {
  name: "accuracy"
  type: "Accuracy"
  bottom: "fc_blob3"
  bottom: "label"
  top: "accuracy"
  include {
    phase: TEST
  }
}
layer {
  name: "loss"
  type: "SoftmaxWithLoss"
  bottom: "fc_blob3"
  bottom: "label"
  top: "loss"
}
I0218 05:07:56.306815   246 layer_factory.hpp:77] Creating layer nexpa
I0218 05:07:56.306888   246 net.cpp:100] Creating Layer nexpa
I0218 05:07:56.306896   246 net.cpp:408] nexpa -> data1
I0218 05:07:56.306902   246 net.cpp:408] nexpa -> label
I0218 05:07:56.306951   250 db_lmdb.cpp:35] Opened lmdb /workspace/parkingclassifier-caffe/20200218_data/20200218_data_test_lmdb
I0218 05:07:56.307162   246 data_layer.cpp:41] output data size: 100,1,32,40
I0218 05:07:56.307852   246 net.cpp:150] Setting up nexpa
I0218 05:07:56.307862   246 net.cpp:157] Top shape: 100 1 32 40 (128000)
I0218 05:07:56.307865   246 net.cpp:157] Top shape: 100 (100)
I0218 05:07:56.307868   246 net.cpp:165] Memory required for data: 512400
I0218 05:07:56.307873   246 layer_factory.hpp:77] Creating layer label_nexpa_1_split
I0218 05:07:56.307878   246 net.cpp:100] Creating Layer label_nexpa_1_split
I0218 05:07:56.307884   246 net.cpp:434] label_nexpa_1_split <- label
I0218 05:07:56.307890   246 net.cpp:408] label_nexpa_1_split -> label_nexpa_1_split_0
I0218 05:07:56.307896   246 net.cpp:408] label_nexpa_1_split -> label_nexpa_1_split_1
I0218 05:07:56.307901   246 net.cpp:150] Setting up label_nexpa_1_split
I0218 05:07:56.307905   246 net.cpp:157] Top shape: 100 (100)
I0218 05:07:56.307909   246 net.cpp:157] Top shape: 100 (100)
I0218 05:07:56.307911   246 net.cpp:165] Memory required for data: 513200
I0218 05:07:56.307914   246 layer_factory.hpp:77] Creating layer conv1
I0218 05:07:56.307922   246 net.cpp:100] Creating Layer conv1
I0218 05:07:56.307925   246 net.cpp:434] conv1 <- data1
I0218 05:07:56.307930   246 net.cpp:408] conv1 -> conv_blob1
I0218 05:07:56.307950   246 net.cpp:150] Setting up conv1
I0218 05:07:56.307956   246 net.cpp:157] Top shape: 100 50 30 38 (5700000)
I0218 05:07:56.307960   246 net.cpp:165] Memory required for data: 23313200
I0218 05:07:56.307966   246 layer_factory.hpp:77] Creating layer relu1
I0218 05:07:56.307971   246 net.cpp:100] Creating Layer relu1
I0218 05:07:56.307973   246 net.cpp:434] relu1 <- conv_blob1
I0218 05:07:56.307977   246 net.cpp:408] relu1 -> relu_blob1
I0218 05:07:56.307981   246 net.cpp:150] Setting up relu1
I0218 05:07:56.307986   246 net.cpp:157] Top shape: 100 50 30 38 (5700000)
I0218 05:07:56.307988   246 net.cpp:165] Memory required for data: 46113200
I0218 05:07:56.307991   246 layer_factory.hpp:77] Creating layer conv2
I0218 05:07:56.307999   246 net.cpp:100] Creating Layer conv2
I0218 05:07:56.308003   246 net.cpp:434] conv2 <- relu_blob1
I0218 05:07:56.308007   246 net.cpp:408] conv2 -> conv_blob2
I0218 05:07:56.308154   246 net.cpp:150] Setting up conv2
I0218 05:07:56.308159   246 net.cpp:157] Top shape: 100 50 28 36 (5040000)
I0218 05:07:56.308163   246 net.cpp:165] Memory required for data: 66273200
I0218 05:07:56.308168   246 layer_factory.hpp:77] Creating layer relu2
I0218 05:07:56.308179   246 net.cpp:100] Creating Layer relu2
I0218 05:07:56.308183   246 net.cpp:434] relu2 <- conv_blob2
I0218 05:07:56.308188   246 net.cpp:408] relu2 -> relu_blob2
I0218 05:07:56.308193   246 net.cpp:150] Setting up relu2
I0218 05:07:56.308197   246 net.cpp:157] Top shape: 100 50 28 36 (5040000)
I0218 05:07:56.308199   246 net.cpp:165] Memory required for data: 86433200
I0218 05:07:56.308202   246 layer_factory.hpp:77] Creating layer max_pool1
I0218 05:07:56.308208   246 net.cpp:100] Creating Layer max_pool1
I0218 05:07:56.308212   246 net.cpp:434] max_pool1 <- relu_blob2
I0218 05:07:56.308216   246 net.cpp:408] max_pool1 -> max_pool_blob1
I0218 05:07:56.308223   246 net.cpp:150] Setting up max_pool1
I0218 05:07:56.308228   246 net.cpp:157] Top shape: 100 50 14 18 (1260000)
I0218 05:07:56.308230   246 net.cpp:165] Memory required for data: 91473200
I0218 05:07:56.308233   246 layer_factory.hpp:77] Creating layer conv3
I0218 05:07:56.308240   246 net.cpp:100] Creating Layer conv3
I0218 05:07:56.308243   246 net.cpp:434] conv3 <- max_pool_blob1
I0218 05:07:56.308248   246 net.cpp:408] conv3 -> conv_blob3
I0218 05:07:56.308336   246 net.cpp:150] Setting up conv3
I0218 05:07:56.308342   246 net.cpp:157] Top shape: 100 28 12 16 (537600)
I0218 05:07:56.308346   246 net.cpp:165] Memory required for data: 93623600
I0218 05:07:56.308351   246 layer_factory.hpp:77] Creating layer relu3
I0218 05:07:56.308356   246 net.cpp:100] Creating Layer relu3
I0218 05:07:56.308359   246 net.cpp:434] relu3 <- conv_blob3
I0218 05:07:56.308364   246 net.cpp:408] relu3 -> relu_blob3
I0218 05:07:56.308369   246 net.cpp:150] Setting up relu3
I0218 05:07:56.308372   246 net.cpp:157] Top shape: 100 28 12 16 (537600)
I0218 05:07:56.308375   246 net.cpp:165] Memory required for data: 95774000
I0218 05:07:56.308378   246 layer_factory.hpp:77] Creating layer conv4
I0218 05:07:56.308385   246 net.cpp:100] Creating Layer conv4
I0218 05:07:56.308388   246 net.cpp:434] conv4 <- relu_blob3
I0218 05:07:56.308393   246 net.cpp:408] conv4 -> conv_blob4
I0218 05:07:56.308449   246 net.cpp:150] Setting up conv4
I0218 05:07:56.308459   246 net.cpp:157] Top shape: 100 28 10 14 (392000)
I0218 05:07:56.308462   246 net.cpp:165] Memory required for data: 97342000
I0218 05:07:56.308466   246 layer_factory.hpp:77] Creating layer relu4
I0218 05:07:56.308470   246 net.cpp:100] Creating Layer relu4
I0218 05:07:56.308473   246 net.cpp:434] relu4 <- conv_blob4
I0218 05:07:56.308477   246 net.cpp:408] relu4 -> relu_blob4
I0218 05:07:56.308482   246 net.cpp:150] Setting up relu4
I0218 05:07:56.308485   246 net.cpp:157] Top shape: 100 28 10 14 (392000)
I0218 05:07:56.308488   246 net.cpp:165] Memory required for data: 98910000
I0218 05:07:56.308491   246 layer_factory.hpp:77] Creating layer max_pool2
I0218 05:07:56.308497   246 net.cpp:100] Creating Layer max_pool2
I0218 05:07:56.308501   246 net.cpp:434] max_pool2 <- relu_blob4
I0218 05:07:56.308504   246 net.cpp:408] max_pool2 -> max_pool_blob2
I0218 05:07:56.308509   246 net.cpp:150] Setting up max_pool2
I0218 05:07:56.308514   246 net.cpp:157] Top shape: 100 28 5 7 (98000)
I0218 05:07:56.308518   246 net.cpp:165] Memory required for data: 99302000
I0218 05:07:56.308521   246 layer_factory.hpp:77] Creating layer fc1
I0218 05:07:56.308526   246 net.cpp:100] Creating Layer fc1
I0218 05:07:56.308528   246 net.cpp:434] fc1 <- max_pool_blob2
I0218 05:07:56.308532   246 net.cpp:408] fc1 -> fc_blob1
I0218 05:07:56.310106   246 net.cpp:150] Setting up fc1
I0218 05:07:56.310114   246 net.cpp:157] Top shape: 100 256 (25600)
I0218 05:07:56.310117   246 net.cpp:165] Memory required for data: 99404400
I0218 05:07:56.310137   246 layer_factory.hpp:77] Creating layer relu5
I0218 05:07:56.310143   246 net.cpp:100] Creating Layer relu5
I0218 05:07:56.310148   246 net.cpp:434] relu5 <- fc_blob1
I0218 05:07:56.310153   246 net.cpp:408] relu5 -> relu_blob5
I0218 05:07:56.310159   246 net.cpp:150] Setting up relu5
I0218 05:07:56.310163   246 net.cpp:157] Top shape: 100 256 (25600)
I0218 05:07:56.310174   246 net.cpp:165] Memory required for data: 99506800
I0218 05:07:56.310178   246 layer_factory.hpp:77] Creating layer fc2
I0218 05:07:56.310182   246 net.cpp:100] Creating Layer fc2
I0218 05:07:56.310187   246 net.cpp:434] fc2 <- relu_blob5
I0218 05:07:56.310191   246 net.cpp:408] fc2 -> fc_blob2
I0218 05:07:56.310329   246 net.cpp:150] Setting up fc2
I0218 05:07:56.310338   246 net.cpp:157] Top shape: 100 84 (8400)
I0218 05:07:56.310341   246 net.cpp:165] Memory required for data: 99540400
I0218 05:07:56.310345   246 layer_factory.hpp:77] Creating layer relu6
I0218 05:07:56.310350   246 net.cpp:100] Creating Layer relu6
I0218 05:07:56.310354   246 net.cpp:434] relu6 <- fc_blob2
I0218 05:07:56.310358   246 net.cpp:408] relu6 -> relu_blob6
I0218 05:07:56.310362   246 net.cpp:150] Setting up relu6
I0218 05:07:56.310365   246 net.cpp:157] Top shape: 100 84 (8400)
I0218 05:07:56.310369   246 net.cpp:165] Memory required for data: 99574000
I0218 05:07:56.310371   246 layer_factory.hpp:77] Creating layer fc3
I0218 05:07:56.310377   246 net.cpp:100] Creating Layer fc3
I0218 05:07:56.310380   246 net.cpp:434] fc3 <- relu_blob6
I0218 05:07:56.310384   246 net.cpp:408] fc3 -> fc_blob3
I0218 05:07:56.310395   246 net.cpp:150] Setting up fc3
I0218 05:07:56.310398   246 net.cpp:157] Top shape: 100 2 (200)
I0218 05:07:56.310401   246 net.cpp:165] Memory required for data: 99574800
I0218 05:07:56.310405   246 layer_factory.hpp:77] Creating layer fc_blob3_fc3_0_split
I0218 05:07:56.310411   246 net.cpp:100] Creating Layer fc_blob3_fc3_0_split
I0218 05:07:56.310415   246 net.cpp:434] fc_blob3_fc3_0_split <- fc_blob3
I0218 05:07:56.310420   246 net.cpp:408] fc_blob3_fc3_0_split -> fc_blob3_fc3_0_split_0
I0218 05:07:56.310423   246 net.cpp:408] fc_blob3_fc3_0_split -> fc_blob3_fc3_0_split_1
I0218 05:07:56.310431   246 net.cpp:150] Setting up fc_blob3_fc3_0_split
I0218 05:07:56.310434   246 net.cpp:157] Top shape: 100 2 (200)
I0218 05:07:56.310438   246 net.cpp:157] Top shape: 100 2 (200)
I0218 05:07:56.310441   246 net.cpp:165] Memory required for data: 99576400
I0218 05:07:56.310443   246 layer_factory.hpp:77] Creating layer accuracy
I0218 05:07:56.310448   246 net.cpp:100] Creating Layer accuracy
I0218 05:07:56.310451   246 net.cpp:434] accuracy <- fc_blob3_fc3_0_split_0
I0218 05:07:56.310456   246 net.cpp:434] accuracy <- label_nexpa_1_split_0
I0218 05:07:56.310459   246 net.cpp:408] accuracy -> accuracy
…
