…
I0202 06:58:37.681749    96 net.cpp:322] The NetState phase (0) differed from the phase (1) specified by a rule in layer accuracy
I0202 06:58:37.681838    96 net.cpp:58] Initializing net from parameters: 
name: "LeNet32x40_3"
state {
  phase: TRAIN
  level: 0
  stage: ""
}
layer {
  name: "nexpa"
  type: "Data"
  top: "data1"
  top: "label"
  include {
    phase: TRAIN
  }
  transform_param {
    scale: 0.00390625
    mirror: true
  }
  data_param {
    source: "/workspace/parkingclassifier-caffe/20200202_data/20200202_data_train_lmdb"
    batch_size: 64
    backend: LMDB
  }
}
layer {
  name: "conv1"
  type: "Convolution"
  bottom: "data1"
  top: "conv_blob1"
  convolution_param {
    num_output: 50
    bias_term: true
    kernel_size: 3
    group: 1
    stride: 1
    weight_filler {
      type: "xavier"
    }
    bias_filler {
      type: "constant"
    }
    dilation: 1
  }
}
layer {
  name: "relu1"
  type: "ReLU"
  bottom: "conv_blob1"
  top: "relu_blob1"
}
layer {
  name: "conv2"
  type: "Convolution"
  bottom: "relu_blob1"
  top: "conv_blob2"
  convolution_param {
    num_output: 50
    bias_term: true
    kernel_size: 3
    group: 1
    stride: 1
    weight_filler {
      type: "xavier"
    }
    bias_filler {
      type: "constant"
    }
    dilation: 1
  }
}
layer {
  name: "relu2"
  type: "ReLU"
  bottom: "conv_blob2"
  top: "relu_blob2"
}
layer {
  name: "max_pool1"
  type: "Pooling"
  bottom: "relu_blob2"
  top: "max_pool_blob1"
  pooling_param {
    pool: MAX
    kernel_size: 2
    stride: 2
  }
}
layer {
  name: "conv3"
  type: "Convolution"
  bottom: "max_pool_blob1"
  top: "conv_blob3"
  convolution_param {
    num_output: 28
    bias_term: true
    kernel_size: 3
    group: 1
    stride: 1
    weight_filler {
      type: "xavier"
    }
    bias_filler {
      type: "constant"
    }
    dilation: 1
  }
}
layer {
  name: "relu3"
  type: "ReLU"
  bottom: "conv_blob3"
  top: "relu_blob3"
}
layer {
  name: "conv4"
  type: "Convolution"
  bottom: "relu_blob3"
  top: "conv_blob4"
  convolution_param {
    num_output: 28
    bias_term: true
    kernel_size: 3
    group: 1
    stride: 1
    weight_filler {
      type: "xavier"
    }
    bias_filler {
      type: "constant"
    }
    dilation: 1
  }
}
layer {
  name: "relu4"
  type: "ReLU"
  bottom: "conv_blob4"
  top: "relu_blob4"
}
layer {
  name: "max_pool2"
  type: "Pooling"
  bottom: "relu_blob4"
  top: "max_pool_blob2"
  pooling_param {
    pool: MAX
    kernel_size: 2
    stride: 2
  }
}
layer {
  name: "fc1"
  type: "InnerProduct"
  bottom: "max_pool_blob2"
  top: "fc_blob1"
  inner_product_param {
    num_output: 256
    bias_term: true
    weight_filler {
      type: "xavier"
    }
    bias_filler {
      type: "constant"
    }
  }
}
layer {
  name: "relu5"
  type: "ReLU"
  bottom: "fc_blob1"
  top: "relu_blob5"
}
layer {
  name: "fc2"
  type: "InnerProduct"
  bottom: "relu_blob5"
  top: "fc_blob2"
  inner_product_param {
    num_output: 84
    bias_term: true
    weight_filler {
      type: "xavier"
    }
    bias_filler {
      type: "constant"
    }
  }
}
layer {
  name: "relu6"
  type: "ReLU"
  bottom: "fc_blob2"
  top: "relu_blob6"
}
layer {
  name: "fc3"
  type: "InnerProduct"
  bottom: "relu_blob6"
  top: "fc_blob3"
  inner_product_param {
    num_output: 2
    bias_term: true
    weight_filler {
      type: "xavier"
    }
    bias_filler {
      type: "constant"
    }
  }
}
layer {
  name: "loss"
  type: "SoftmaxWithLoss"
  bottom: "fc_blob3"
  bottom: "label"
  top: "loss"
}
I0202 06:58:37.682315    96 layer_factory.hpp:77] Creating layer nexpa
I0202 06:58:37.683564    96 net.cpp:100] Creating Layer nexpa
I0202 06:58:37.683574    96 net.cpp:408] nexpa -> data1
I0202 06:58:37.683604    96 net.cpp:408] nexpa -> label
I0202 06:58:37.683655    98 db_lmdb.cpp:35] Opened lmdb /workspace/parkingclassifier-caffe/20200202_data/20200202_data_train_lmdb
I0202 06:58:37.683714    96 data_layer.cpp:41] output data size: 64,1,32,40
I0202 06:58:37.684288    96 net.cpp:150] Setting up nexpa
I0202 06:58:37.684303    96 net.cpp:157] Top shape: 64 1 32 40 (81920)
I0202 06:58:37.684307    96 net.cpp:157] Top shape: 64 (64)
I0202 06:58:37.684311    96 net.cpp:165] Memory required for data: 327936
I0202 06:58:37.684317    96 layer_factory.hpp:77] Creating layer conv1
I0202 06:58:37.684330    96 net.cpp:100] Creating Layer conv1
I0202 06:58:37.684336    96 net.cpp:434] conv1 <- data1
I0202 06:58:37.684345    96 net.cpp:408] conv1 -> conv_blob1
I0202 06:58:37.684758    96 net.cpp:150] Setting up conv1
I0202 06:58:37.684770    96 net.cpp:157] Top shape: 64 50 30 38 (3648000)
I0202 06:58:37.684774    96 net.cpp:165] Memory required for data: 14919936
I0202 06:58:37.684784    96 layer_factory.hpp:77] Creating layer relu1
I0202 06:58:37.684790    96 net.cpp:100] Creating Layer relu1
I0202 06:58:37.684794    96 net.cpp:434] relu1 <- conv_blob1
I0202 06:58:37.684798    96 net.cpp:408] relu1 -> relu_blob1
I0202 06:58:37.685084    96 net.cpp:150] Setting up relu1
I0202 06:58:37.685092    96 net.cpp:157] Top shape: 64 50 30 38 (3648000)
I0202 06:58:37.685096    96 net.cpp:165] Memory required for data: 29511936
I0202 06:58:37.685099    96 layer_factory.hpp:77] Creating layer conv2
I0202 06:58:37.685106    96 net.cpp:100] Creating Layer conv2
I0202 06:58:37.685112    96 net.cpp:434] conv2 <- relu_blob1
I0202 06:58:37.685117    96 net.cpp:408] conv2 -> conv_blob2
I0202 06:58:37.685272    96 net.cpp:150] Setting up conv2
I0202 06:58:37.685281    96 net.cpp:157] Top shape: 64 50 28 36 (3225600)
I0202 06:58:37.685283    96 net.cpp:165] Memory required for data: 42414336
I0202 06:58:37.685290    96 layer_factory.hpp:77] Creating layer relu2
I0202 06:58:37.685295    96 net.cpp:100] Creating Layer relu2
I0202 06:58:37.685298    96 net.cpp:434] relu2 <- conv_blob2
I0202 06:58:37.685302    96 net.cpp:408] relu2 -> relu_blob2
I0202 06:58:37.685307    96 net.cpp:150] Setting up relu2
I0202 06:58:37.685310    96 net.cpp:157] Top shape: 64 50 28 36 (3225600)
I0202 06:58:37.685315    96 net.cpp:165] Memory required for data: 55316736
I0202 06:58:37.685318    96 layer_factory.hpp:77] Creating layer max_pool1
I0202 06:58:37.685322    96 net.cpp:100] Creating Layer max_pool1
I0202 06:58:37.685326    96 net.cpp:434] max_pool1 <- relu_blob2
I0202 06:58:37.685330    96 net.cpp:408] max_pool1 -> max_pool_blob1
I0202 06:58:37.685344    96 net.cpp:150] Setting up max_pool1
I0202 06:58:37.685349    96 net.cpp:157] Top shape: 64 50 14 18 (806400)
I0202 06:58:37.685353    96 net.cpp:165] Memory required for data: 58542336
I0202 06:58:37.685354    96 layer_factory.hpp:77] Creating layer conv3
I0202 06:58:37.685360    96 net.cpp:100] Creating Layer conv3
I0202 06:58:37.685364    96 net.cpp:434] conv3 <- max_pool_blob1
I0202 06:58:37.685369    96 net.cpp:408] conv3 -> conv_blob3
I0202 06:58:37.685459    96 net.cpp:150] Setting up conv3
I0202 06:58:37.685465    96 net.cpp:157] Top shape: 64 28 12 16 (344064)
I0202 06:58:37.685468    96 net.cpp:165] Memory required for data: 59918592
I0202 06:58:37.685474    96 layer_factory.hpp:77] Creating layer relu3
I0202 06:58:37.685479    96 net.cpp:100] Creating Layer relu3
I0202 06:58:37.685482    96 net.cpp:434] relu3 <- conv_blob3
I0202 06:58:37.685487    96 net.cpp:408] relu3 -> relu_blob3
I0202 06:58:37.685492    96 net.cpp:150] Setting up relu3
I0202 06:58:37.685497    96 net.cpp:157] Top shape: 64 28 12 16 (344064)
I0202 06:58:37.685500    96 net.cpp:165] Memory required for data: 61294848
I0202 06:58:37.685514    96 layer_factory.hpp:77] Creating layer conv4
I0202 06:58:37.685523    96 net.cpp:100] Creating Layer conv4
I0202 06:58:37.685525    96 net.cpp:434] conv4 <- relu_blob3
I0202 06:58:37.685529    96 net.cpp:408] conv4 -> conv_blob4
I0202 06:58:37.685585    96 net.cpp:150] Setting up conv4
I0202 06:58:37.685590    96 net.cpp:157] Top shape: 64 28 10 14 (250880)
I0202 06:58:37.685593    96 net.cpp:165] Memory required for data: 62298368
I0202 06:58:37.685598    96 layer_factory.hpp:77] Creating layer relu4
I0202 06:58:37.685602    96 net.cpp:100] Creating Layer relu4
I0202 06:58:37.685604    96 net.cpp:434] relu4 <- conv_blob4
I0202 06:58:37.685609    96 net.cpp:408] relu4 -> relu_blob4
I0202 06:58:37.685614    96 net.cpp:150] Setting up relu4
I0202 06:58:37.685618    96 net.cpp:157] Top shape: 64 28 10 14 (250880)
I0202 06:58:37.685621    96 net.cpp:165] Memory required for data: 63301888
I0202 06:58:37.685624    96 layer_factory.hpp:77] Creating layer max_pool2
I0202 06:58:37.685627    96 net.cpp:100] Creating Layer max_pool2
I0202 06:58:37.685631    96 net.cpp:434] max_pool2 <- relu_blob4
I0202 06:58:37.685636    96 net.cpp:408] max_pool2 -> max_pool_blob2
I0202 06:58:37.685642    96 net.cpp:150] Setting up max_pool2
I0202 06:58:37.685645    96 net.cpp:157] Top shape: 64 28 5 7 (62720)
I0202 06:58:37.685648    96 net.cpp:165] Memory required for data: 63552768
I0202 06:58:37.685652    96 layer_factory.hpp:77] Creating layer fc1
I0202 06:58:37.685658    96 net.cpp:100] Creating Layer fc1
I0202 06:58:37.685662    96 net.cpp:434] fc1 <- max_pool_blob2
I0202 06:58:37.685668    96 net.cpp:408] fc1 -> fc_blob1
I0202 06:58:37.687219    96 net.cpp:150] Setting up fc1
I0202 06:58:37.687227    96 net.cpp:157] Top shape: 64 256 (16384)
I0202 06:58:37.687230    96 net.cpp:165] Memory required for data: 63618304
I0202 06:58:37.687237    96 layer_factory.hpp:77] Creating layer relu5
I0202 06:58:37.687242    96 net.cpp:100] Creating Layer relu5
I0202 06:58:37.687247    96 net.cpp:434] relu5 <- fc_blob1
I0202 06:58:37.687250    96 net.cpp:408] relu5 -> relu_blob5
I0202 06:58:37.687254    96 net.cpp:150] Setting up relu5
I0202 06:58:37.687261    96 net.cpp:157] Top shape: 64 256 (16384)
I0202 06:58:37.687266    96 net.cpp:165] Memory required for data: 63683840
I0202 06:58:37.687269    96 layer_factory.hpp:77] Creating layer fc2
I0202 06:58:37.687273    96 net.cpp:100] Creating Layer fc2
I0202 06:58:37.687276    96 net.cpp:434] fc2 <- relu_blob5
I0202 06:58:37.687280    96 net.cpp:408] fc2 -> fc_blob2
I0202 06:58:37.687418    96 net.cpp:150] Setting up fc2
I0202 06:58:37.687423    96 net.cpp:157] Top shape: 64 84 (5376)
I0202 06:58:37.687427    96 net.cpp:165] Memory required for data: 63705344
I0202 06:58:37.687430    96 layer_factory.hpp:77] Creating layer relu6
I0202 06:58:37.687436    96 net.cpp:100] Creating Layer relu6
I0202 06:58:37.687439    96 net.cpp:434] relu6 <- fc_blob2
I0202 06:58:37.687443    96 net.cpp:408] relu6 -> relu_blob6
I0202 06:58:37.687448    96 net.cpp:150] Setting up relu6
I0202 06:58:37.687450    96 net.cpp:157] Top shape: 64 84 (5376)
I0202 06:58:37.687453    96 net.cpp:165] Memory required for data: 63726848
I0202 06:58:37.687456    96 layer_factory.hpp:77] Creating layer fc3
I0202 06:58:37.687461    96 net.cpp:100] Creating Layer fc3
I0202 06:58:37.687464    96 net.cpp:434] fc3 <- relu_blob6
I0202 06:58:37.687469    96 net.cpp:408] fc3 -> fc_blob3
I0202 06:58:37.687479    96 net.cpp:150] Setting up fc3
I0202 06:58:37.687484    96 net.cpp:157] Top shape: 64 2 (128)
I0202 06:58:37.687486    96 net.cpp:165] Memory required for data: 63727360
I0202 06:58:37.687490    96 layer_factory.hpp:77] Creating layer loss
I0202 06:58:37.687496    96 net.cpp:100] Creating Layer loss
I0202 06:58:37.687500    96 net.cpp:434] loss <- fc_blob3
I0202 06:58:37.687503    96 net.cpp:434] loss <- label
I0202 06:58:37.687510    96 net.cpp:408] loss -> loss
I0202 06:58:37.687516    96 layer_factory.hpp:77] Creating layer loss
…
I0202 06:58:37.688241    96 net.cpp:322] The NetState phase (1) differed from the phase (0) specified by a rule in layer nexpa
I0202 06:58:37.688313    96 net.cpp:58] Initializing net from parameters: 
name: "LeNet32x40_3"
state {
  phase: TEST
}
layer {
  name: "nexpa"
  type: "Data"
  top: "data1"
  top: "label"
  include {
    phase: TEST
  }
  transform_param {
    scale: 0.00390625
    mirror: true
  }
  data_param {
    source: "/workspace/parkingclassifier-caffe/20200202_data/20200202_data_test_lmdb"
    batch_size: 100
    backend: LMDB
  }
}
layer {
  name: "conv1"
  type: "Convolution"
  bottom: "data1"
  top: "conv_blob1"
  convolution_param {
    num_output: 50
    bias_term: true
    kernel_size: 3
    group: 1
    stride: 1
    weight_filler {
      type: "xavier"
    }
    bias_filler {
      type: "constant"
    }
    dilation: 1
  }
}
layer {
  name: "relu1"
  type: "ReLU"
  bottom: "conv_blob1"
  top: "relu_blob1"
}
layer {
  name: "conv2"
  type: "Convolution"
  bottom: "relu_blob1"
  top: "conv_blob2"
  convolution_param {
    num_output: 50
    bias_term: true
    kernel_size: 3
    group: 1
    stride: 1
    weight_filler {
      type: "xavier"
    }
    bias_filler {
      type: "constant"
    }
    dilation: 1
  }
}
layer {
  name: "relu2"
  type: "ReLU"
  bottom: "conv_blob2"
  top: "relu_blob2"
}
layer {
  name: "max_pool1"
  type: "Pooling"
  bottom: "relu_blob2"
  top: "max_pool_blob1"
  pooling_param {
    pool: MAX
    kernel_size: 2
    stride: 2
  }
}
layer {
  name: "conv3"
  type: "Convolution"
  bottom: "max_pool_blob1"
  top: "conv_blob3"
  convolution_param {
    num_output: 28
    bias_term: true
    kernel_size: 3
    group: 1
    stride: 1
    weight_filler {
      type: "xavier"
    }
    bias_filler {
      type: "constant"
    }
    dilation: 1
  }
}
layer {
  name: "relu3"
  type: "ReLU"
  bottom: "conv_blob3"
  top: "relu_blob3"
}
layer {
  name: "conv4"
  type: "Convolution"
  bottom: "relu_blob3"
  top: "conv_blob4"
  convolution_param {
    num_output: 28
    bias_term: true
    kernel_size: 3
    group: 1
    stride: 1
    weight_filler {
      type: "xavier"
    }
    bias_filler {
      type: "constant"
    }
    dilation: 1
  }
}
layer {
  name: "relu4"
  type: "ReLU"
  bottom: "conv_blob4"
  top: "relu_blob4"
}
layer {
  name: "max_pool2"
  type: "Pooling"
  bottom: "relu_blob4"
  top: "max_pool_blob2"
  pooling_param {
    pool: MAX
    kernel_size: 2
    stride: 2
  }
}
layer {
  name: "fc1"
  type: "InnerProduct"
  bottom: "max_pool_blob2"
  top: "fc_blob1"
  inner_product_param {
    num_output: 256
    bias_term: true
    weight_filler {
      type: "xavier"
    }
    bias_filler {
      type: "constant"
    }
  }
}
layer {
  name: "relu5"
  type: "ReLU"
  bottom: "fc_blob1"
  top: "relu_blob5"
}
layer {
  name: "fc2"
  type: "InnerProduct"
  bottom: "relu_blob5"
  top: "fc_blob2"
  inner_product_param {
    num_output: 84
    bias_term: true
    weight_filler {
      type: "xavier"
    }
    bias_filler {
      type: "constant"
    }
  }
}
layer {
  name: "relu6"
  type: "ReLU"
  bottom: "fc_blob2"
  top: "relu_blob6"
}
layer {
  name: "fc3"
  type: "InnerProduct"
  bottom: "relu_blob6"
  top: "fc_blob3"
  inner_product_param {
    num_output: 2
    bias_term: true
    weight_filler {
      type: "xavier"
    }
    bias_filler {
      type: "constant"
    }
  }
}
layer {
  name: "accuracy"
  type: "Accuracy"
  bottom: "fc_blob3"
  bottom: "label"
  top: "accuracy"
  include {
    phase: TEST
  }
}
layer {
  name: "loss"
  type: "SoftmaxWithLoss"
  bottom: "fc_blob3"
  bottom: "label"
  top: "loss"
}
I0202 06:58:37.688380    96 layer_factory.hpp:77] Creating layer nexpa
I0202 06:58:37.688457    96 net.cpp:100] Creating Layer nexpa
I0202 06:58:37.688463    96 net.cpp:408] nexpa -> data1
I0202 06:58:37.688472    96 net.cpp:408] nexpa -> label
I0202 06:58:37.688513   100 db_lmdb.cpp:35] Opened lmdb /workspace/parkingclassifier-caffe/20200202_data/20200202_data_test_lmdb
I0202 06:58:37.688616    96 data_layer.cpp:41] output data size: 100,1,32,40
I0202 06:58:37.689467    96 net.cpp:150] Setting up nexpa
I0202 06:58:37.689477    96 net.cpp:157] Top shape: 100 1 32 40 (128000)
I0202 06:58:37.689481    96 net.cpp:157] Top shape: 100 (100)
I0202 06:58:37.689484    96 net.cpp:165] Memory required for data: 512400
I0202 06:58:37.689488    96 layer_factory.hpp:77] Creating layer label_nexpa_1_split
I0202 06:58:37.689497    96 net.cpp:100] Creating Layer label_nexpa_1_split
I0202 06:58:37.689502    96 net.cpp:434] label_nexpa_1_split <- label
I0202 06:58:37.689507    96 net.cpp:408] label_nexpa_1_split -> label_nexpa_1_split_0
I0202 06:58:37.689513    96 net.cpp:408] label_nexpa_1_split -> label_nexpa_1_split_1
I0202 06:58:37.689519    96 net.cpp:150] Setting up label_nexpa_1_split
I0202 06:58:37.689522    96 net.cpp:157] Top shape: 100 (100)
I0202 06:58:37.689527    96 net.cpp:157] Top shape: 100 (100)
I0202 06:58:37.689529    96 net.cpp:165] Memory required for data: 513200
I0202 06:58:37.689532    96 layer_factory.hpp:77] Creating layer conv1
I0202 06:58:37.689540    96 net.cpp:100] Creating Layer conv1
I0202 06:58:37.689543    96 net.cpp:434] conv1 <- data1
I0202 06:58:37.689548    96 net.cpp:408] conv1 -> conv_blob1
I0202 06:58:37.689570    96 net.cpp:150] Setting up conv1
I0202 06:58:37.689574    96 net.cpp:157] Top shape: 100 50 30 38 (5700000)
I0202 06:58:37.689577    96 net.cpp:165] Memory required for data: 23313200
I0202 06:58:37.689584    96 layer_factory.hpp:77] Creating layer relu1
I0202 06:58:37.689590    96 net.cpp:100] Creating Layer relu1
I0202 06:58:37.689594    96 net.cpp:434] relu1 <- conv_blob1
I0202 06:58:37.689597    96 net.cpp:408] relu1 -> relu_blob1
I0202 06:58:37.689602    96 net.cpp:150] Setting up relu1
I0202 06:58:37.689605    96 net.cpp:157] Top shape: 100 50 30 38 (5700000)
I0202 06:58:37.689608    96 net.cpp:165] Memory required for data: 46113200
I0202 06:58:37.689611    96 layer_factory.hpp:77] Creating layer conv2
I0202 06:58:37.689620    96 net.cpp:100] Creating Layer conv2
I0202 06:58:37.689623    96 net.cpp:434] conv2 <- relu_blob1
I0202 06:58:37.689630    96 net.cpp:408] conv2 -> conv_blob2
I0202 06:58:37.689777    96 net.cpp:150] Setting up conv2
I0202 06:58:37.689781    96 net.cpp:157] Top shape: 100 50 28 36 (5040000)
I0202 06:58:37.689785    96 net.cpp:165] Memory required for data: 66273200
I0202 06:58:37.689790    96 layer_factory.hpp:77] Creating layer relu2
I0202 06:58:37.689802    96 net.cpp:100] Creating Layer relu2
I0202 06:58:37.689806    96 net.cpp:434] relu2 <- conv_blob2
I0202 06:58:37.689811    96 net.cpp:408] relu2 -> relu_blob2
I0202 06:58:37.689816    96 net.cpp:150] Setting up relu2
I0202 06:58:37.689821    96 net.cpp:157] Top shape: 100 50 28 36 (5040000)
I0202 06:58:37.689823    96 net.cpp:165] Memory required for data: 86433200
I0202 06:58:37.689826    96 layer_factory.hpp:77] Creating layer max_pool1
I0202 06:58:37.689832    96 net.cpp:100] Creating Layer max_pool1
I0202 06:58:37.689836    96 net.cpp:434] max_pool1 <- relu_blob2
I0202 06:58:37.689846    96 net.cpp:408] max_pool1 -> max_pool_blob1
I0202 06:58:37.689852    96 net.cpp:150] Setting up max_pool1
I0202 06:58:37.689857    96 net.cpp:157] Top shape: 100 50 14 18 (1260000)
I0202 06:58:37.689859    96 net.cpp:165] Memory required for data: 91473200
I0202 06:58:37.689862    96 layer_factory.hpp:77] Creating layer conv3
I0202 06:58:37.689869    96 net.cpp:100] Creating Layer conv3
I0202 06:58:37.689873    96 net.cpp:434] conv3 <- max_pool_blob1
I0202 06:58:37.689877    96 net.cpp:408] conv3 -> conv_blob3
I0202 06:58:37.689965    96 net.cpp:150] Setting up conv3
I0202 06:58:37.689968    96 net.cpp:157] Top shape: 100 28 12 16 (537600)
I0202 06:58:37.689971    96 net.cpp:165] Memory required for data: 93623600
I0202 06:58:37.689977    96 layer_factory.hpp:77] Creating layer relu3
I0202 06:58:37.689983    96 net.cpp:100] Creating Layer relu3
I0202 06:58:37.689986    96 net.cpp:434] relu3 <- conv_blob3
I0202 06:58:37.689990    96 net.cpp:408] relu3 -> relu_blob3
I0202 06:58:37.689996    96 net.cpp:150] Setting up relu3
I0202 06:58:37.689998    96 net.cpp:157] Top shape: 100 28 12 16 (537600)
I0202 06:58:37.690001    96 net.cpp:165] Memory required for data: 95774000
I0202 06:58:37.690004    96 layer_factory.hpp:77] Creating layer conv4
I0202 06:58:37.690011    96 net.cpp:100] Creating Layer conv4
I0202 06:58:37.690014    96 net.cpp:434] conv4 <- relu_blob3
I0202 06:58:37.690019    96 net.cpp:408] conv4 -> conv_blob4
I0202 06:58:37.690074    96 net.cpp:150] Setting up conv4
I0202 06:58:37.690083    96 net.cpp:157] Top shape: 100 28 10 14 (392000)
I0202 06:58:37.690085    96 net.cpp:165] Memory required for data: 97342000
I0202 06:58:37.690090    96 layer_factory.hpp:77] Creating layer relu4
I0202 06:58:37.690095    96 net.cpp:100] Creating Layer relu4
I0202 06:58:37.690099    96 net.cpp:434] relu4 <- conv_blob4
I0202 06:58:37.690104    96 net.cpp:408] relu4 -> relu_blob4
I0202 06:58:37.690107    96 net.cpp:150] Setting up relu4
I0202 06:58:37.690112    96 net.cpp:157] Top shape: 100 28 10 14 (392000)
I0202 06:58:37.690114    96 net.cpp:165] Memory required for data: 98910000
I0202 06:58:37.690117    96 layer_factory.hpp:77] Creating layer max_pool2
I0202 06:58:37.690122    96 net.cpp:100] Creating Layer max_pool2
I0202 06:58:37.690125    96 net.cpp:434] max_pool2 <- relu_blob4
I0202 06:58:37.690129    96 net.cpp:408] max_pool2 -> max_pool_blob2
I0202 06:58:37.690135    96 net.cpp:150] Setting up max_pool2
I0202 06:58:37.690138    96 net.cpp:157] Top shape: 100 28 5 7 (98000)
I0202 06:58:37.690141    96 net.cpp:165] Memory required for data: 99302000
I0202 06:58:37.690143    96 layer_factory.hpp:77] Creating layer fc1
I0202 06:58:37.690150    96 net.cpp:100] Creating Layer fc1
I0202 06:58:37.690153    96 net.cpp:434] fc1 <- max_pool_blob2
I0202 06:58:37.690156    96 net.cpp:408] fc1 -> fc_blob1
I0202 06:58:37.692189    96 net.cpp:150] Setting up fc1
I0202 06:58:37.692205    96 net.cpp:157] Top shape: 100 256 (25600)
I0202 06:58:37.692209    96 net.cpp:165] Memory required for data: 99404400
I0202 06:58:37.692219    96 layer_factory.hpp:77] Creating layer relu5
I0202 06:58:37.692224    96 net.cpp:100] Creating Layer relu5
I0202 06:58:37.692229    96 net.cpp:434] relu5 <- fc_blob1
I0202 06:58:37.692234    96 net.cpp:408] relu5 -> relu_blob5
I0202 06:58:37.692245    96 net.cpp:150] Setting up relu5
I0202 06:58:37.692248    96 net.cpp:157] Top shape: 100 256 (25600)
I0202 06:58:37.692276    96 net.cpp:165] Memory required for data: 99506800
I0202 06:58:37.692286    96 layer_factory.hpp:77] Creating layer fc2
I0202 06:58:37.692298    96 net.cpp:100] Creating Layer fc2
I0202 06:58:37.692303    96 net.cpp:434] fc2 <- relu_blob5
I0202 06:58:37.692309    96 net.cpp:408] fc2 -> fc_blob2
I0202 06:58:37.692456    96 net.cpp:150] Setting up fc2
I0202 06:58:37.692467    96 net.cpp:157] Top shape: 100 84 (8400)
I0202 06:58:37.692471    96 net.cpp:165] Memory required for data: 99540400
I0202 06:58:37.692476    96 layer_factory.hpp:77] Creating layer relu6
I0202 06:58:37.692479    96 net.cpp:100] Creating Layer relu6
I0202 06:58:37.692482    96 net.cpp:434] relu6 <- fc_blob2
I0202 06:58:37.692487    96 net.cpp:408] relu6 -> relu_blob6
I0202 06:58:37.692492    96 net.cpp:150] Setting up relu6
I0202 06:58:37.692497    96 net.cpp:157] Top shape: 100 84 (8400)
I0202 06:58:37.692499    96 net.cpp:165] Memory required for data: 99574000
I0202 06:58:37.692502    96 layer_factory.hpp:77] Creating layer fc3
I0202 06:58:37.692507    96 net.cpp:100] Creating Layer fc3
I0202 06:58:37.692510    96 net.cpp:434] fc3 <- relu_blob6
I0202 06:58:37.692515    96 net.cpp:408] fc3 -> fc_blob3
I0202 06:58:37.692525    96 net.cpp:150] Setting up fc3
I0202 06:58:37.692529    96 net.cpp:157] Top shape: 100 2 (200)
I0202 06:58:37.692533    96 net.cpp:165] Memory required for data: 99574800
I0202 06:58:37.692536    96 layer_factory.hpp:77] Creating layer fc_blob3_fc3_0_split
I0202 06:58:37.692541    96 net.cpp:100] Creating Layer fc_blob3_fc3_0_split
I0202 06:58:37.692544    96 net.cpp:434] fc_blob3_fc3_0_split <- fc_blob3
I0202 06:58:37.692549    96 net.cpp:408] fc_blob3_fc3_0_split -> fc_blob3_fc3_0_split_0
I0202 06:58:37.692553    96 net.cpp:408] fc_blob3_fc3_0_split -> fc_blob3_fc3_0_split_1
I0202 06:58:37.692559    96 net.cpp:150] Setting up fc_blob3_fc3_0_split
I0202 06:58:37.692564    96 net.cpp:157] Top shape: 100 2 (200)
I0202 06:58:37.692566    96 net.cpp:157] Top shape: 100 2 (200)
I0202 06:58:37.692569    96 net.cpp:165] Memory required for data: 99576400
I0202 06:58:37.692572    96 layer_factory.hpp:77] Creating layer accuracy
I0202 06:58:37.692576    96 net.cpp:100] Creating Layer accuracy
I0202 06:58:37.692579    96 net.cpp:434] accuracy <- fc_blob3_fc3_0_split_0
I0202 06:58:37.692584    96 net.cpp:434] accuracy <- label_nexpa_1_split_0
I0202 06:58:37.692587    96 net.cpp:408] accuracy -> accuracy
…
