…
I1222 01:56:47.851524   171 net.cpp:322] The NetState phase (0) differed from the phase (1) specified by a rule in layer accuracy
I1222 01:56:47.851595   171 net.cpp:58] Initializing net from parameters: 
name: "LeNet32x40_3"
state {
  phase: TRAIN
  level: 0
  stage: ""
}
layer {
  name: "nexpa"
  type: "Data"
  top: "data1"
  top: "label"
  include {
    phase: TRAIN
  }
  transform_param {
    scale: 0.00390625
    mirror: true
  }
  data_param {
    source: "/workspace/parkingclassifier-caffe/20191221_data/20191221_data_train_lmdb"
    batch_size: 64
    backend: LMDB
  }
}
layer {
  name: "conv1"
  type: "Convolution"
  bottom: "data1"
  top: "conv_blob1"
  convolution_param {
    num_output: 50
    bias_term: true
    kernel_size: 3
    group: 1
    stride: 1
    weight_filler {
      type: "xavier"
    }
    bias_filler {
      type: "constant"
    }
    dilation: 1
  }
}
layer {
  name: "relu1"
  type: "ReLU"
  bottom: "conv_blob1"
  top: "relu_blob1"
}
layer {
  name: "conv2"
  type: "Convolution"
  bottom: "relu_blob1"
  top: "conv_blob2"
  convolution_param {
    num_output: 50
    bias_term: true
    kernel_size: 3
    group: 1
    stride: 1
    weight_filler {
      type: "xavier"
    }
    bias_filler {
      type: "constant"
    }
    dilation: 1
  }
}
layer {
  name: "relu2"
  type: "ReLU"
  bottom: "conv_blob2"
  top: "relu_blob2"
}
layer {
  name: "max_pool1"
  type: "Pooling"
  bottom: "relu_blob2"
  top: "max_pool_blob1"
  pooling_param {
    pool: MAX
    kernel_size: 2
    stride: 2
  }
}
layer {
  name: "conv3"
  type: "Convolution"
  bottom: "max_pool_blob1"
  top: "conv_blob3"
  convolution_param {
    num_output: 28
    bias_term: true
    kernel_size: 3
    group: 1
    stride: 1
    weight_filler {
      type: "xavier"
    }
    bias_filler {
      type: "constant"
    }
    dilation: 1
  }
}
layer {
  name: "relu3"
  type: "ReLU"
  bottom: "conv_blob3"
  top: "relu_blob3"
}
layer {
  name: "conv4"
  type: "Convolution"
  bottom: "relu_blob3"
  top: "conv_blob4"
  convolution_param {
    num_output: 28
    bias_term: true
    kernel_size: 3
    group: 1
    stride: 1
    weight_filler {
      type: "xavier"
    }
    bias_filler {
      type: "constant"
    }
    dilation: 1
  }
}
layer {
  name: "relu4"
  type: "ReLU"
  bottom: "conv_blob4"
  top: "relu_blob4"
}
layer {
  name: "max_pool2"
  type: "Pooling"
  bottom: "relu_blob4"
  top: "max_pool_blob2"
  pooling_param {
    pool: MAX
    kernel_size: 2
    stride: 2
  }
}
layer {
  name: "fc1"
  type: "InnerProduct"
  bottom: "max_pool_blob2"
  top: "fc_blob1"
  inner_product_param {
    num_output: 256
    bias_term: true
    weight_filler {
      type: "xavier"
    }
    bias_filler {
      type: "constant"
    }
  }
}
layer {
  name: "relu5"
  type: "ReLU"
  bottom: "fc_blob1"
  top: "relu_blob5"
}
layer {
  name: "fc2"
  type: "InnerProduct"
  bottom: "relu_blob5"
  top: "fc_blob2"
  inner_product_param {
    num_output: 84
    bias_term: true
    weight_filler {
      type: "xavier"
    }
    bias_filler {
      type: "constant"
    }
  }
}
layer {
  name: "relu6"
  type: "ReLU"
  bottom: "fc_blob2"
  top: "relu_blob6"
}
layer {
  name: "fc3"
  type: "InnerProduct"
  bottom: "relu_blob6"
  top: "fc_blob3"
  inner_product_param {
    num_output: 2
    bias_term: true
    weight_filler {
      type: "xavier"
    }
    bias_filler {
      type: "constant"
    }
  }
}
layer {
  name: "accuracy"
  type: "Accuracy"
  bottom: "fc_blob3"
  bottom: "label"
  top: "accuracy"
  include {
    phase: TRAIN
  }
}
layer {
  name: "loss"
  type: "SoftmaxWithLoss"
  bottom: "fc_blob3"
  bottom: "label"
  top: "loss"
}
I1222 01:56:47.852097   171 layer_factory.hpp:77] Creating layer nexpa
I1222 01:56:47.853780   171 net.cpp:100] Creating Layer nexpa
I1222 01:56:47.853796   171 net.cpp:408] nexpa -> data1
I1222 01:56:47.853813   171 net.cpp:408] nexpa -> label
I1222 01:56:47.854414   173 db_lmdb.cpp:35] Opened lmdb /workspace/parkingclassifier-caffe/20191221_data/20191221_data_train_lmdb
I1222 01:56:47.855974   171 data_layer.cpp:41] output data size: 64,1,32,40
I1222 01:56:47.856400   171 net.cpp:150] Setting up nexpa
I1222 01:56:47.856417   171 net.cpp:157] Top shape: 64 1 32 40 (81920)
I1222 01:56:47.856423   171 net.cpp:157] Top shape: 64 (64)
I1222 01:56:47.856427   171 net.cpp:165] Memory required for data: 327936
I1222 01:56:47.856433   171 layer_factory.hpp:77] Creating layer label_nexpa_1_split
I1222 01:56:47.856748   171 net.cpp:100] Creating Layer label_nexpa_1_split
I1222 01:56:47.856760   171 net.cpp:434] label_nexpa_1_split <- label
I1222 01:56:47.856768   171 net.cpp:408] label_nexpa_1_split -> label_nexpa_1_split_0
I1222 01:56:47.856778   171 net.cpp:408] label_nexpa_1_split -> label_nexpa_1_split_1
I1222 01:56:47.856786   171 net.cpp:150] Setting up label_nexpa_1_split
I1222 01:56:47.856791   171 net.cpp:157] Top shape: 64 (64)
I1222 01:56:47.856796   171 net.cpp:157] Top shape: 64 (64)
I1222 01:56:47.856799   171 net.cpp:165] Memory required for data: 328448
I1222 01:56:47.856802   171 layer_factory.hpp:77] Creating layer conv1
I1222 01:56:47.856813   171 net.cpp:100] Creating Layer conv1
I1222 01:56:47.856817   171 net.cpp:434] conv1 <- data1
I1222 01:56:47.856822   171 net.cpp:408] conv1 -> conv_blob1
I1222 01:56:47.856858   171 net.cpp:150] Setting up conv1
I1222 01:56:47.856863   171 net.cpp:157] Top shape: 64 50 30 38 (3648000)
I1222 01:56:47.856866   171 net.cpp:165] Memory required for data: 14920448
I1222 01:56:47.856875   171 layer_factory.hpp:77] Creating layer relu1
I1222 01:56:47.856880   171 net.cpp:100] Creating Layer relu1
I1222 01:56:47.856884   171 net.cpp:434] relu1 <- conv_blob1
I1222 01:56:47.856887   171 net.cpp:408] relu1 -> relu_blob1
I1222 01:56:47.857254   171 net.cpp:150] Setting up relu1
I1222 01:56:47.857261   171 net.cpp:157] Top shape: 64 50 30 38 (3648000)
I1222 01:56:47.857265   171 net.cpp:165] Memory required for data: 29512448
I1222 01:56:47.857268   171 layer_factory.hpp:77] Creating layer conv2
I1222 01:56:47.857275   171 net.cpp:100] Creating Layer conv2
I1222 01:56:47.857280   171 net.cpp:434] conv2 <- relu_blob1
I1222 01:56:47.857285   171 net.cpp:408] conv2 -> conv_blob2
I1222 01:56:47.857443   171 net.cpp:150] Setting up conv2
I1222 01:56:47.857450   171 net.cpp:157] Top shape: 64 50 28 36 (3225600)
I1222 01:56:47.857453   171 net.cpp:165] Memory required for data: 42414848
I1222 01:56:47.857460   171 layer_factory.hpp:77] Creating layer relu2
I1222 01:56:47.857465   171 net.cpp:100] Creating Layer relu2
I1222 01:56:47.857467   171 net.cpp:434] relu2 <- conv_blob2
I1222 01:56:47.857473   171 net.cpp:408] relu2 -> relu_blob2
I1222 01:56:47.857479   171 net.cpp:150] Setting up relu2
I1222 01:56:47.857484   171 net.cpp:157] Top shape: 64 50 28 36 (3225600)
I1222 01:56:47.857487   171 net.cpp:165] Memory required for data: 55317248
I1222 01:56:47.857489   171 layer_factory.hpp:77] Creating layer max_pool1
I1222 01:56:47.857494   171 net.cpp:100] Creating Layer max_pool1
I1222 01:56:47.857497   171 net.cpp:434] max_pool1 <- relu_blob2
I1222 01:56:47.857502   171 net.cpp:408] max_pool1 -> max_pool_blob1
I1222 01:56:47.857517   171 net.cpp:150] Setting up max_pool1
I1222 01:56:47.857530   171 net.cpp:157] Top shape: 64 50 14 18 (806400)
I1222 01:56:47.857537   171 net.cpp:165] Memory required for data: 58542848
I1222 01:56:47.857539   171 layer_factory.hpp:77] Creating layer conv3
I1222 01:56:47.857547   171 net.cpp:100] Creating Layer conv3
I1222 01:56:47.857560   171 net.cpp:434] conv3 <- max_pool_blob1
I1222 01:56:47.857566   171 net.cpp:408] conv3 -> conv_blob3
I1222 01:56:47.857656   171 net.cpp:150] Setting up conv3
I1222 01:56:47.857662   171 net.cpp:157] Top shape: 64 28 12 16 (344064)
I1222 01:56:47.857666   171 net.cpp:165] Memory required for data: 59919104
I1222 01:56:47.857671   171 layer_factory.hpp:77] Creating layer relu3
I1222 01:56:47.857676   171 net.cpp:100] Creating Layer relu3
I1222 01:56:47.857681   171 net.cpp:434] relu3 <- conv_blob3
I1222 01:56:47.857686   171 net.cpp:408] relu3 -> relu_blob3
I1222 01:56:47.857692   171 net.cpp:150] Setting up relu3
I1222 01:56:47.857695   171 net.cpp:157] Top shape: 64 28 12 16 (344064)
I1222 01:56:47.857700   171 net.cpp:165] Memory required for data: 61295360
I1222 01:56:47.857703   171 layer_factory.hpp:77] Creating layer conv4
I1222 01:56:47.857709   171 net.cpp:100] Creating Layer conv4
I1222 01:56:47.857714   171 net.cpp:434] conv4 <- relu_blob3
I1222 01:56:47.857719   171 net.cpp:408] conv4 -> conv_blob4
I1222 01:56:47.857915   171 net.cpp:150] Setting up conv4
I1222 01:56:47.857923   171 net.cpp:157] Top shape: 64 28 10 14 (250880)
I1222 01:56:47.857926   171 net.cpp:165] Memory required for data: 62298880
I1222 01:56:47.857931   171 layer_factory.hpp:77] Creating layer relu4
I1222 01:56:47.857935   171 net.cpp:100] Creating Layer relu4
I1222 01:56:47.857939   171 net.cpp:434] relu4 <- conv_blob4
I1222 01:56:47.857946   171 net.cpp:408] relu4 -> relu_blob4
I1222 01:56:47.857955   171 net.cpp:150] Setting up relu4
I1222 01:56:47.857960   171 net.cpp:157] Top shape: 64 28 10 14 (250880)
I1222 01:56:47.857964   171 net.cpp:165] Memory required for data: 63302400
I1222 01:56:47.857966   171 layer_factory.hpp:77] Creating layer max_pool2
I1222 01:56:47.857971   171 net.cpp:100] Creating Layer max_pool2
I1222 01:56:47.857975   171 net.cpp:434] max_pool2 <- relu_blob4
I1222 01:56:47.857980   171 net.cpp:408] max_pool2 -> max_pool_blob2
I1222 01:56:47.857986   171 net.cpp:150] Setting up max_pool2
I1222 01:56:47.857991   171 net.cpp:157] Top shape: 64 28 5 7 (62720)
I1222 01:56:47.857995   171 net.cpp:165] Memory required for data: 63553280
I1222 01:56:47.857997   171 layer_factory.hpp:77] Creating layer fc1
I1222 01:56:47.858005   171 net.cpp:100] Creating Layer fc1
I1222 01:56:47.858008   171 net.cpp:434] fc1 <- max_pool_blob2
I1222 01:56:47.858013   171 net.cpp:408] fc1 -> fc_blob1
I1222 01:56:47.859596   171 net.cpp:150] Setting up fc1
I1222 01:56:47.859603   171 net.cpp:157] Top shape: 64 256 (16384)
I1222 01:56:47.859606   171 net.cpp:165] Memory required for data: 63618816
I1222 01:56:47.859612   171 layer_factory.hpp:77] Creating layer relu5
I1222 01:56:47.859619   171 net.cpp:100] Creating Layer relu5
I1222 01:56:47.859622   171 net.cpp:434] relu5 <- fc_blob1
I1222 01:56:47.859627   171 net.cpp:408] relu5 -> relu_blob5
I1222 01:56:47.859632   171 net.cpp:150] Setting up relu5
I1222 01:56:47.859640   171 net.cpp:157] Top shape: 64 256 (16384)
I1222 01:56:47.859643   171 net.cpp:165] Memory required for data: 63684352
I1222 01:56:47.859647   171 layer_factory.hpp:77] Creating layer fc2
I1222 01:56:47.859650   171 net.cpp:100] Creating Layer fc2
I1222 01:56:47.859653   171 net.cpp:434] fc2 <- relu_blob5
I1222 01:56:47.859658   171 net.cpp:408] fc2 -> fc_blob2
I1222 01:56:47.859794   171 net.cpp:150] Setting up fc2
I1222 01:56:47.859800   171 net.cpp:157] Top shape: 64 84 (5376)
I1222 01:56:47.859803   171 net.cpp:165] Memory required for data: 63705856
I1222 01:56:47.859807   171 layer_factory.hpp:77] Creating layer relu6
I1222 01:56:47.859810   171 net.cpp:100] Creating Layer relu6
I1222 01:56:47.859813   171 net.cpp:434] relu6 <- fc_blob2
I1222 01:56:47.859817   171 net.cpp:408] relu6 -> relu_blob6
I1222 01:56:47.859822   171 net.cpp:150] Setting up relu6
I1222 01:56:47.859825   171 net.cpp:157] Top shape: 64 84 (5376)
I1222 01:56:47.859828   171 net.cpp:165] Memory required for data: 63727360
I1222 01:56:47.859830   171 layer_factory.hpp:77] Creating layer fc3
I1222 01:56:47.859846   171 net.cpp:100] Creating Layer fc3
I1222 01:56:47.859853   171 net.cpp:434] fc3 <- relu_blob6
I1222 01:56:47.859859   171 net.cpp:408] fc3 -> fc_blob3
I1222 01:56:47.859869   171 net.cpp:150] Setting up fc3
I1222 01:56:47.859874   171 net.cpp:157] Top shape: 64 2 (128)
I1222 01:56:47.859876   171 net.cpp:165] Memory required for data: 63727872
I1222 01:56:47.859880   171 layer_factory.hpp:77] Creating layer fc_blob3_fc3_0_split
I1222 01:56:47.859884   171 net.cpp:100] Creating Layer fc_blob3_fc3_0_split
I1222 01:56:47.859887   171 net.cpp:434] fc_blob3_fc3_0_split <- fc_blob3
I1222 01:56:47.859892   171 net.cpp:408] fc_blob3_fc3_0_split -> fc_blob3_fc3_0_split_0
I1222 01:56:47.859897   171 net.cpp:408] fc_blob3_fc3_0_split -> fc_blob3_fc3_0_split_1
I1222 01:56:47.859901   171 net.cpp:150] Setting up fc_blob3_fc3_0_split
I1222 01:56:47.859905   171 net.cpp:157] Top shape: 64 2 (128)
I1222 01:56:47.859908   171 net.cpp:157] Top shape: 64 2 (128)
I1222 01:56:47.859911   171 net.cpp:165] Memory required for data: 63728896
I1222 01:56:47.859915   171 layer_factory.hpp:77] Creating layer accuracy
I1222 01:56:47.859918   171 net.cpp:100] Creating Layer accuracy
I1222 01:56:47.859921   171 net.cpp:434] accuracy <- fc_blob3_fc3_0_split_0
I1222 01:56:47.859925   171 net.cpp:434] accuracy <- label_nexpa_1_split_0
I1222 01:56:47.859930   171 net.cpp:408] accuracy -> accuracy
…
I1222 01:56:47.860838   171 net.cpp:322] The NetState phase (1) differed from the phase (0) specified by a rule in layer accuracy
I1222 01:56:47.860906   171 net.cpp:58] Initializing net from parameters: 
name: "LeNet32x40_3"
state {
  phase: TEST
}
layer {
  name: "nexpa"
  type: "Data"
  top: "data1"
  top: "label"
  include {
    phase: TEST
  }
  transform_param {
    scale: 0.00390625
    mirror: true
  }
  data_param {
    source: "/workspace/parkingclassifier-caffe/20191221_data/20191221_data_test_lmdb"
    batch_size: 100
    backend: LMDB
  }
}
layer {
  name: "conv1"
  type: "Convolution"
  bottom: "data1"
  top: "conv_blob1"
  convolution_param {
    num_output: 50
    bias_term: true
    kernel_size: 3
    group: 1
    stride: 1
    weight_filler {
      type: "xavier"
    }
    bias_filler {
      type: "constant"
    }
    dilation: 1
  }
}
layer {
  name: "relu1"
  type: "ReLU"
  bottom: "conv_blob1"
  top: "relu_blob1"
}
layer {
  name: "conv2"
  type: "Convolution"
  bottom: "relu_blob1"
  top: "conv_blob2"
  convolution_param {
    num_output: 50
    bias_term: true
    kernel_size: 3
    group: 1
    stride: 1
    weight_filler {
      type: "xavier"
    }
    bias_filler {
      type: "constant"
    }
    dilation: 1
  }
}
layer {
  name: "relu2"
  type: "ReLU"
  bottom: "conv_blob2"
  top: "relu_blob2"
}
layer {
  name: "max_pool1"
  type: "Pooling"
  bottom: "relu_blob2"
  top: "max_pool_blob1"
  pooling_param {
    pool: MAX
    kernel_size: 2
    stride: 2
  }
}
layer {
  name: "conv3"
  type: "Convolution"
  bottom: "max_pool_blob1"
  top: "conv_blob3"
  convolution_param {
    num_output: 28
    bias_term: true
    kernel_size: 3
    group: 1
    stride: 1
    weight_filler {
      type: "xavier"
    }
    bias_filler {
      type: "constant"
    }
    dilation: 1
  }
}
layer {
  name: "relu3"
  type: "ReLU"
  bottom: "conv_blob3"
  top: "relu_blob3"
}
layer {
  name: "conv4"
  type: "Convolution"
  bottom: "relu_blob3"
  top: "conv_blob4"
  convolution_param {
    num_output: 28
    bias_term: true
    kernel_size: 3
    group: 1
    stride: 1
    weight_filler {
      type: "xavier"
    }
    bias_filler {
      type: "constant"
    }
    dilation: 1
  }
}
layer {
  name: "relu4"
  type: "ReLU"
  bottom: "conv_blob4"
  top: "relu_blob4"
}
layer {
  name: "max_pool2"
  type: "Pooling"
  bottom: "relu_blob4"
  top: "max_pool_blob2"
  pooling_param {
    pool: MAX
    kernel_size: 2
    stride: 2
  }
}
layer {
  name: "fc1"
  type: "InnerProduct"
  bottom: "max_pool_blob2"
  top: "fc_blob1"
  inner_product_param {
    num_output: 256
    bias_term: true
    weight_filler {
      type: "xavier"
    }
    bias_filler {
      type: "constant"
    }
  }
}
layer {
  name: "relu5"
  type: "ReLU"
  bottom: "fc_blob1"
  top: "relu_blob5"
}
layer {
  name: "fc2"
  type: "InnerProduct"
  bottom: "relu_blob5"
  top: "fc_blob2"
  inner_product_param {
    num_output: 84
    bias_term: true
    weight_filler {
      type: "xavier"
    }
    bias_filler {
      type: "constant"
    }
  }
}
layer {
  name: "relu6"
  type: "ReLU"
  bottom: "fc_blob2"
  top: "relu_blob6"
}
layer {
  name: "fc3"
  type: "InnerProduct"
  bottom: "relu_blob6"
  top: "fc_blob3"
  inner_product_param {
    num_output: 2
    bias_term: true
    weight_filler {
      type: "xavier"
    }
    bias_filler {
      type: "constant"
    }
  }
}
layer {
  name: "accuracy"
  type: "Accuracy"
  bottom: "fc_blob3"
  bottom: "label"
  top: "accuracy"
  include {
    phase: TEST
  }
}
layer {
  name: "loss"
  type: "SoftmaxWithLoss"
  bottom: "fc_blob3"
  bottom: "label"
  top: "loss"
}
I1222 01:56:47.860965   171 layer_factory.hpp:77] Creating layer nexpa
I1222 01:56:47.861042   171 net.cpp:100] Creating Layer nexpa
I1222 01:56:47.861049   171 net.cpp:408] nexpa -> data1
I1222 01:56:47.861057   171 net.cpp:408] nexpa -> label
I1222 01:56:47.861670   175 db_lmdb.cpp:35] Opened lmdb /workspace/parkingclassifier-caffe/20191221_data/20191221_data_test_lmdb
I1222 01:56:47.862550   171 data_layer.cpp:41] output data size: 100,1,32,40
I1222 01:56:47.863131   171 net.cpp:150] Setting up nexpa
I1222 01:56:47.863143   171 net.cpp:157] Top shape: 100 1 32 40 (128000)
I1222 01:56:47.863148   171 net.cpp:157] Top shape: 100 (100)
I1222 01:56:47.863153   171 net.cpp:165] Memory required for data: 512400
I1222 01:56:47.863158   171 layer_factory.hpp:77] Creating layer label_nexpa_1_split
I1222 01:56:47.863168   171 net.cpp:100] Creating Layer label_nexpa_1_split
I1222 01:56:47.863170   171 net.cpp:434] label_nexpa_1_split <- label
I1222 01:56:47.863178   171 net.cpp:408] label_nexpa_1_split -> label_nexpa_1_split_0
I1222 01:56:47.863185   171 net.cpp:408] label_nexpa_1_split -> label_nexpa_1_split_1
I1222 01:56:47.863193   171 net.cpp:150] Setting up label_nexpa_1_split
I1222 01:56:47.863199   171 net.cpp:157] Top shape: 100 (100)
I1222 01:56:47.863202   171 net.cpp:157] Top shape: 100 (100)
I1222 01:56:47.863205   171 net.cpp:165] Memory required for data: 513200
I1222 01:56:47.863209   171 layer_factory.hpp:77] Creating layer conv1
I1222 01:56:47.863219   171 net.cpp:100] Creating Layer conv1
I1222 01:56:47.863224   171 net.cpp:434] conv1 <- data1
I1222 01:56:47.863229   171 net.cpp:408] conv1 -> conv_blob1
I1222 01:56:47.863457   171 net.cpp:150] Setting up conv1
I1222 01:56:47.863468   171 net.cpp:157] Top shape: 100 50 30 38 (5700000)
I1222 01:56:47.863471   171 net.cpp:165] Memory required for data: 23313200
I1222 01:56:47.863481   171 layer_factory.hpp:77] Creating layer relu1
I1222 01:56:47.863487   171 net.cpp:100] Creating Layer relu1
I1222 01:56:47.863492   171 net.cpp:434] relu1 <- conv_blob1
I1222 01:56:47.863497   171 net.cpp:408] relu1 -> relu_blob1
I1222 01:56:47.863505   171 net.cpp:150] Setting up relu1
I1222 01:56:47.863512   171 net.cpp:157] Top shape: 100 50 30 38 (5700000)
I1222 01:56:47.863514   171 net.cpp:165] Memory required for data: 46113200
I1222 01:56:47.863517   171 layer_factory.hpp:77] Creating layer conv2
I1222 01:56:47.863525   171 net.cpp:100] Creating Layer conv2
I1222 01:56:47.863529   171 net.cpp:434] conv2 <- relu_blob1
I1222 01:56:47.863533   171 net.cpp:408] conv2 -> conv_blob2
I1222 01:56:47.863685   171 net.cpp:150] Setting up conv2
I1222 01:56:47.863690   171 net.cpp:157] Top shape: 100 50 28 36 (5040000)
I1222 01:56:47.863694   171 net.cpp:165] Memory required for data: 66273200
I1222 01:56:47.863732   171 layer_factory.hpp:77] Creating layer relu2
I1222 01:56:47.863741   171 net.cpp:100] Creating Layer relu2
I1222 01:56:47.863745   171 net.cpp:434] relu2 <- conv_blob2
I1222 01:56:47.863749   171 net.cpp:408] relu2 -> relu_blob2
I1222 01:56:47.863754   171 net.cpp:150] Setting up relu2
I1222 01:56:47.863759   171 net.cpp:157] Top shape: 100 50 28 36 (5040000)
I1222 01:56:47.863761   171 net.cpp:165] Memory required for data: 86433200
I1222 01:56:47.863765   171 layer_factory.hpp:77] Creating layer max_pool1
I1222 01:56:47.863770   171 net.cpp:100] Creating Layer max_pool1
I1222 01:56:47.863772   171 net.cpp:434] max_pool1 <- relu_blob2
I1222 01:56:47.863778   171 net.cpp:408] max_pool1 -> max_pool_blob1
I1222 01:56:47.863785   171 net.cpp:150] Setting up max_pool1
I1222 01:56:47.863790   171 net.cpp:157] Top shape: 100 50 14 18 (1260000)
I1222 01:56:47.863792   171 net.cpp:165] Memory required for data: 91473200
I1222 01:56:47.863795   171 layer_factory.hpp:77] Creating layer conv3
I1222 01:56:47.863803   171 net.cpp:100] Creating Layer conv3
I1222 01:56:47.863808   171 net.cpp:434] conv3 <- max_pool_blob1
I1222 01:56:47.863813   171 net.cpp:408] conv3 -> conv_blob3
I1222 01:56:47.863903   171 net.cpp:150] Setting up conv3
I1222 01:56:47.863906   171 net.cpp:157] Top shape: 100 28 12 16 (537600)
I1222 01:56:47.863909   171 net.cpp:165] Memory required for data: 93623600
I1222 01:56:47.863915   171 layer_factory.hpp:77] Creating layer relu3
I1222 01:56:47.863922   171 net.cpp:100] Creating Layer relu3
I1222 01:56:47.863925   171 net.cpp:434] relu3 <- conv_blob3
I1222 01:56:47.863937   171 net.cpp:408] relu3 -> relu_blob3
I1222 01:56:47.863942   171 net.cpp:150] Setting up relu3
I1222 01:56:47.863946   171 net.cpp:157] Top shape: 100 28 12 16 (537600)
I1222 01:56:47.863950   171 net.cpp:165] Memory required for data: 95774000
I1222 01:56:47.863952   171 layer_factory.hpp:77] Creating layer conv4
I1222 01:56:47.863960   171 net.cpp:100] Creating Layer conv4
I1222 01:56:47.863962   171 net.cpp:434] conv4 <- relu_blob3
I1222 01:56:47.863967   171 net.cpp:408] conv4 -> conv_blob4
I1222 01:56:47.864025   171 net.cpp:150] Setting up conv4
I1222 01:56:47.864034   171 net.cpp:157] Top shape: 100 28 10 14 (392000)
I1222 01:56:47.864037   171 net.cpp:165] Memory required for data: 97342000
I1222 01:56:47.864042   171 layer_factory.hpp:77] Creating layer relu4
I1222 01:56:47.864048   171 net.cpp:100] Creating Layer relu4
I1222 01:56:47.864050   171 net.cpp:434] relu4 <- conv_blob4
I1222 01:56:47.864054   171 net.cpp:408] relu4 -> relu_blob4
I1222 01:56:47.864058   171 net.cpp:150] Setting up relu4
I1222 01:56:47.864063   171 net.cpp:157] Top shape: 100 28 10 14 (392000)
I1222 01:56:47.864065   171 net.cpp:165] Memory required for data: 98910000
I1222 01:56:47.864068   171 layer_factory.hpp:77] Creating layer max_pool2
I1222 01:56:47.864073   171 net.cpp:100] Creating Layer max_pool2
I1222 01:56:47.864076   171 net.cpp:434] max_pool2 <- relu_blob4
I1222 01:56:47.864081   171 net.cpp:408] max_pool2 -> max_pool_blob2
I1222 01:56:47.864086   171 net.cpp:150] Setting up max_pool2
I1222 01:56:47.864089   171 net.cpp:157] Top shape: 100 28 5 7 (98000)
I1222 01:56:47.864161   171 net.cpp:165] Memory required for data: 99302000
I1222 01:56:47.864164   171 layer_factory.hpp:77] Creating layer fc1
I1222 01:56:47.864171   171 net.cpp:100] Creating Layer fc1
I1222 01:56:47.864174   171 net.cpp:434] fc1 <- max_pool_blob2
I1222 01:56:47.864178   171 net.cpp:408] fc1 -> fc_blob1
I1222 01:56:47.865758   171 net.cpp:150] Setting up fc1
I1222 01:56:47.865767   171 net.cpp:157] Top shape: 100 256 (25600)
I1222 01:56:47.865772   171 net.cpp:165] Memory required for data: 99404400
I1222 01:56:47.865777   171 layer_factory.hpp:77] Creating layer relu5
I1222 01:56:47.865784   171 net.cpp:100] Creating Layer relu5
I1222 01:56:47.865792   171 net.cpp:434] relu5 <- fc_blob1
I1222 01:56:47.865795   171 net.cpp:408] relu5 -> relu_blob5
I1222 01:56:47.865801   171 net.cpp:150] Setting up relu5
I1222 01:56:47.865808   171 net.cpp:157] Top shape: 100 256 (25600)
I1222 01:56:47.865810   171 net.cpp:165] Memory required for data: 99506800
I1222 01:56:47.865813   171 layer_factory.hpp:77] Creating layer fc2
I1222 01:56:47.865818   171 net.cpp:100] Creating Layer fc2
I1222 01:56:47.865821   171 net.cpp:434] fc2 <- relu_blob5
I1222 01:56:47.865828   171 net.cpp:408] fc2 -> fc_blob2
I1222 01:56:47.865973   171 net.cpp:150] Setting up fc2
I1222 01:56:47.865979   171 net.cpp:157] Top shape: 100 84 (8400)
I1222 01:56:47.865983   171 net.cpp:165] Memory required for data: 99540400
I1222 01:56:47.865986   171 layer_factory.hpp:77] Creating layer relu6
I1222 01:56:47.865990   171 net.cpp:100] Creating Layer relu6
I1222 01:56:47.865993   171 net.cpp:434] relu6 <- fc_blob2
I1222 01:56:47.866015   171 net.cpp:408] relu6 -> relu_blob6
I1222 01:56:47.866029   171 net.cpp:150] Setting up relu6
I1222 01:56:47.866032   171 net.cpp:157] Top shape: 100 84 (8400)
I1222 01:56:47.866035   171 net.cpp:165] Memory required for data: 99574000
I1222 01:56:47.866039   171 layer_factory.hpp:77] Creating layer fc3
I1222 01:56:47.866048   171 net.cpp:100] Creating Layer fc3
I1222 01:56:47.866051   171 net.cpp:434] fc3 <- relu_blob6
I1222 01:56:47.866056   171 net.cpp:408] fc3 -> fc_blob3
I1222 01:56:47.866066   171 net.cpp:150] Setting up fc3
I1222 01:56:47.866072   171 net.cpp:157] Top shape: 100 2 (200)
I1222 01:56:47.866075   171 net.cpp:165] Memory required for data: 99574800
I1222 01:56:47.866080   171 layer_factory.hpp:77] Creating layer fc_blob3_fc3_0_split
I1222 01:56:47.866083   171 net.cpp:100] Creating Layer fc_blob3_fc3_0_split
I1222 01:56:47.866093   171 net.cpp:434] fc_blob3_fc3_0_split <- fc_blob3
I1222 01:56:47.866097   171 net.cpp:408] fc_blob3_fc3_0_split -> fc_blob3_fc3_0_split_0
I1222 01:56:47.866102   171 net.cpp:408] fc_blob3_fc3_0_split -> fc_blob3_fc3_0_split_1
I1222 01:56:47.866117   171 net.cpp:150] Setting up fc_blob3_fc3_0_split
I1222 01:56:47.866120   171 net.cpp:157] Top shape: 100 2 (200)
I1222 01:56:47.866124   171 net.cpp:157] Top shape: 100 2 (200)
I1222 01:56:47.866127   171 net.cpp:165] Memory required for data: 99576400
I1222 01:56:47.866129   171 layer_factory.hpp:77] Creating layer accuracy
I1222 01:56:47.866137   171 net.cpp:100] Creating Layer accuracy
I1222 01:56:47.866139   171 net.cpp:434] accuracy <- fc_blob3_fc3_0_split_0
I1222 01:56:47.866143   171 net.cpp:434] accuracy <- label_nexpa_1_split_0
I1222 01:56:47.866148   171 net.cpp:408] accuracy -> accuracy
…
