…
I1228 07:32:30.875468   158 net.cpp:322] The NetState phase (0) differed from the phase (1) specified by a rule in layer accuracy
I1228 07:32:30.875533   158 net.cpp:58] Initializing net from parameters: 
name: "LeNet32x40_3"
state {
  phase: TRAIN
  level: 0
  stage: ""
}
layer {
  name: "nexpa"
  type: "Data"
  top: "data1"
  top: "label"
  include {
    phase: TRAIN
  }
  transform_param {
    scale: 0.00390625
    mirror: true
  }
  data_param {
    source: "/workspace/parkingclassifier-caffe/20191228_data/20191228_data_train_lmdb"
    batch_size: 64
    backend: LMDB
  }
}
layer {
  name: "conv1"
  type: "Convolution"
  bottom: "data1"
  top: "conv_blob1"
  convolution_param {
    num_output: 50
    bias_term: true
    kernel_size: 3
    group: 1
    stride: 1
    weight_filler {
      type: "xavier"
    }
    bias_filler {
      type: "constant"
    }
    dilation: 1
  }
}
layer {
  name: "relu1"
  type: "ReLU"
  bottom: "conv_blob1"
  top: "relu_blob1"
}
layer {
  name: "conv2"
  type: "Convolution"
  bottom: "relu_blob1"
  top: "conv_blob2"
  convolution_param {
    num_output: 50
    bias_term: true
    kernel_size: 3
    group: 1
    stride: 1
    weight_filler {
      type: "xavier"
    }
    bias_filler {
      type: "constant"
    }
    dilation: 1
  }
}
layer {
  name: "relu2"
  type: "ReLU"
  bottom: "conv_blob2"
  top: "relu_blob2"
}
layer {
  name: "max_pool1"
  type: "Pooling"
  bottom: "relu_blob2"
  top: "max_pool_blob1"
  pooling_param {
    pool: MAX
    kernel_size: 2
    stride: 2
  }
}
layer {
  name: "conv3"
  type: "Convolution"
  bottom: "max_pool_blob1"
  top: "conv_blob3"
  convolution_param {
    num_output: 28
    bias_term: true
    kernel_size: 3
    group: 1
    stride: 1
    weight_filler {
      type: "xavier"
    }
    bias_filler {
      type: "constant"
    }
    dilation: 1
  }
}
layer {
  name: "relu3"
  type: "ReLU"
  bottom: "conv_blob3"
  top: "relu_blob3"
}
layer {
  name: "conv4"
  type: "Convolution"
  bottom: "relu_blob3"
  top: "conv_blob4"
  convolution_param {
    num_output: 28
    bias_term: true
    kernel_size: 3
    group: 1
    stride: 1
    weight_filler {
      type: "xavier"
    }
    bias_filler {
      type: "constant"
    }
    dilation: 1
  }
}
layer {
  name: "relu4"
  type: "ReLU"
  bottom: "conv_blob4"
  top: "relu_blob4"
}
layer {
  name: "max_pool2"
  type: "Pooling"
  bottom: "relu_blob4"
  top: "max_pool_blob2"
  pooling_param {
    pool: MAX
    kernel_size: 2
    stride: 2
  }
}
layer {
  name: "fc1"
  type: "InnerProduct"
  bottom: "max_pool_blob2"
  top: "fc_blob1"
  inner_product_param {
    num_output: 256
    bias_term: true
    weight_filler {
      type: "xavier"
    }
    bias_filler {
      type: "constant"
    }
  }
}
layer {
  name: "relu5"
  type: "ReLU"
  bottom: "fc_blob1"
  top: "relu_blob5"
}
layer {
  name: "fc2"
  type: "InnerProduct"
  bottom: "relu_blob5"
  top: "fc_blob2"
  inner_product_param {
    num_output: 84
    bias_term: true
    weight_filler {
      type: "xavier"
    }
    bias_filler {
      type: "constant"
    }
  }
}
layer {
  name: "relu6"
  type: "ReLU"
  bottom: "fc_blob2"
  top: "relu_blob6"
}
layer {
  name: "fc3"
  type: "InnerProduct"
  bottom: "relu_blob6"
  top: "fc_blob3"
  inner_product_param {
    num_output: 2
    bias_term: true
    weight_filler {
      type: "xavier"
    }
    bias_filler {
      type: "constant"
    }
  }
}
layer {
  name: "loss"
  type: "SoftmaxWithLoss"
  bottom: "fc_blob3"
  bottom: "label"
  top: "loss"
}
I1228 07:32:30.876003   158 layer_factory.hpp:77] Creating layer nexpa
I1228 07:32:30.877256   158 net.cpp:100] Creating Layer nexpa
I1228 07:32:30.877269   158 net.cpp:408] nexpa -> data1
I1228 07:32:30.877285   158 net.cpp:408] nexpa -> label
I1228 07:32:30.877334   160 db_lmdb.cpp:35] Opened lmdb /workspace/parkingclassifier-caffe/20191228_data/20191228_data_train_lmdb
I1228 07:32:30.877406   158 data_layer.cpp:41] output data size: 64,1,32,40
I1228 07:32:30.877935   158 net.cpp:150] Setting up nexpa
I1228 07:32:30.877948   158 net.cpp:157] Top shape: 64 1 32 40 (81920)
I1228 07:32:30.877955   158 net.cpp:157] Top shape: 64 (64)
I1228 07:32:30.877959   158 net.cpp:165] Memory required for data: 327936
I1228 07:32:30.877964   158 layer_factory.hpp:77] Creating layer conv1
I1228 07:32:30.877975   158 net.cpp:100] Creating Layer conv1
I1228 07:32:30.877982   158 net.cpp:434] conv1 <- data1
I1228 07:32:30.877990   158 net.cpp:408] conv1 -> conv_blob1
I1228 07:32:30.878408   158 net.cpp:150] Setting up conv1
I1228 07:32:30.878419   158 net.cpp:157] Top shape: 64 50 30 38 (3648000)
I1228 07:32:30.878422   158 net.cpp:165] Memory required for data: 14919936
I1228 07:32:30.878432   158 layer_factory.hpp:77] Creating layer relu1
I1228 07:32:30.878438   158 net.cpp:100] Creating Layer relu1
I1228 07:32:30.878443   158 net.cpp:434] relu1 <- conv_blob1
I1228 07:32:30.878448   158 net.cpp:408] relu1 -> relu_blob1
I1228 07:32:30.878728   158 net.cpp:150] Setting up relu1
I1228 07:32:30.878736   158 net.cpp:157] Top shape: 64 50 30 38 (3648000)
I1228 07:32:30.878741   158 net.cpp:165] Memory required for data: 29511936
I1228 07:32:30.878743   158 layer_factory.hpp:77] Creating layer conv2
I1228 07:32:30.878751   158 net.cpp:100] Creating Layer conv2
I1228 07:32:30.878754   158 net.cpp:434] conv2 <- relu_blob1
I1228 07:32:30.878758   158 net.cpp:408] conv2 -> conv_blob2
I1228 07:32:30.878916   158 net.cpp:150] Setting up conv2
I1228 07:32:30.878923   158 net.cpp:157] Top shape: 64 50 28 36 (3225600)
I1228 07:32:30.878927   158 net.cpp:165] Memory required for data: 42414336
I1228 07:32:30.878933   158 layer_factory.hpp:77] Creating layer relu2
I1228 07:32:30.878938   158 net.cpp:100] Creating Layer relu2
I1228 07:32:30.878942   158 net.cpp:434] relu2 <- conv_blob2
I1228 07:32:30.878947   158 net.cpp:408] relu2 -> relu_blob2
I1228 07:32:30.878952   158 net.cpp:150] Setting up relu2
I1228 07:32:30.878955   158 net.cpp:157] Top shape: 64 50 28 36 (3225600)
I1228 07:32:30.878958   158 net.cpp:165] Memory required for data: 55316736
I1228 07:32:30.878962   158 layer_factory.hpp:77] Creating layer max_pool1
I1228 07:32:30.878967   158 net.cpp:100] Creating Layer max_pool1
I1228 07:32:30.878969   158 net.cpp:434] max_pool1 <- relu_blob2
I1228 07:32:30.878973   158 net.cpp:408] max_pool1 -> max_pool_blob1
I1228 07:32:30.878984   158 net.cpp:150] Setting up max_pool1
I1228 07:32:30.878989   158 net.cpp:157] Top shape: 64 50 14 18 (806400)
I1228 07:32:30.878993   158 net.cpp:165] Memory required for data: 58542336
I1228 07:32:30.878995   158 layer_factory.hpp:77] Creating layer conv3
I1228 07:32:30.879001   158 net.cpp:100] Creating Layer conv3
I1228 07:32:30.879004   158 net.cpp:434] conv3 <- max_pool_blob1
I1228 07:32:30.879009   158 net.cpp:408] conv3 -> conv_blob3
I1228 07:32:30.879101   158 net.cpp:150] Setting up conv3
I1228 07:32:30.879108   158 net.cpp:157] Top shape: 64 28 12 16 (344064)
I1228 07:32:30.879112   158 net.cpp:165] Memory required for data: 59918592
I1228 07:32:30.879117   158 layer_factory.hpp:77] Creating layer relu3
I1228 07:32:30.879122   158 net.cpp:100] Creating Layer relu3
I1228 07:32:30.879125   158 net.cpp:434] relu3 <- conv_blob3
I1228 07:32:30.879129   158 net.cpp:408] relu3 -> relu_blob3
I1228 07:32:30.879135   158 net.cpp:150] Setting up relu3
I1228 07:32:30.879140   158 net.cpp:157] Top shape: 64 28 12 16 (344064)
I1228 07:32:30.879143   158 net.cpp:165] Memory required for data: 61294848
I1228 07:32:30.879155   158 layer_factory.hpp:77] Creating layer conv4
I1228 07:32:30.879163   158 net.cpp:100] Creating Layer conv4
I1228 07:32:30.879166   158 net.cpp:434] conv4 <- relu_blob3
I1228 07:32:30.879170   158 net.cpp:408] conv4 -> conv_blob4
I1228 07:32:30.879227   158 net.cpp:150] Setting up conv4
I1228 07:32:30.879235   158 net.cpp:157] Top shape: 64 28 10 14 (250880)
I1228 07:32:30.879237   158 net.cpp:165] Memory required for data: 62298368
I1228 07:32:30.879241   158 layer_factory.hpp:77] Creating layer relu4
I1228 07:32:30.879245   158 net.cpp:100] Creating Layer relu4
I1228 07:32:30.879248   158 net.cpp:434] relu4 <- conv_blob4
I1228 07:32:30.879254   158 net.cpp:408] relu4 -> relu_blob4
I1228 07:32:30.879258   158 net.cpp:150] Setting up relu4
I1228 07:32:30.879262   158 net.cpp:157] Top shape: 64 28 10 14 (250880)
I1228 07:32:30.879266   158 net.cpp:165] Memory required for data: 63301888
I1228 07:32:30.879268   158 layer_factory.hpp:77] Creating layer max_pool2
I1228 07:32:30.879272   158 net.cpp:100] Creating Layer max_pool2
I1228 07:32:30.879276   158 net.cpp:434] max_pool2 <- relu_blob4
I1228 07:32:30.879281   158 net.cpp:408] max_pool2 -> max_pool_blob2
I1228 07:32:30.879287   158 net.cpp:150] Setting up max_pool2
I1228 07:32:30.879290   158 net.cpp:157] Top shape: 64 28 5 7 (62720)
I1228 07:32:30.879292   158 net.cpp:165] Memory required for data: 63552768
I1228 07:32:30.879295   158 layer_factory.hpp:77] Creating layer fc1
I1228 07:32:30.879303   158 net.cpp:100] Creating Layer fc1
I1228 07:32:30.879307   158 net.cpp:434] fc1 <- max_pool_blob2
I1228 07:32:30.879312   158 net.cpp:408] fc1 -> fc_blob1
I1228 07:32:30.880877   158 net.cpp:150] Setting up fc1
I1228 07:32:30.880883   158 net.cpp:157] Top shape: 64 256 (16384)
I1228 07:32:30.880887   158 net.cpp:165] Memory required for data: 63618304
I1228 07:32:30.880892   158 layer_factory.hpp:77] Creating layer relu5
I1228 07:32:30.880899   158 net.cpp:100] Creating Layer relu5
I1228 07:32:30.880903   158 net.cpp:434] relu5 <- fc_blob1
I1228 07:32:30.880906   158 net.cpp:408] relu5 -> relu_blob5
I1228 07:32:30.880911   158 net.cpp:150] Setting up relu5
I1228 07:32:30.880916   158 net.cpp:157] Top shape: 64 256 (16384)
I1228 07:32:30.880919   158 net.cpp:165] Memory required for data: 63683840
I1228 07:32:30.880923   158 layer_factory.hpp:77] Creating layer fc2
I1228 07:32:30.880928   158 net.cpp:100] Creating Layer fc2
I1228 07:32:30.880930   158 net.cpp:434] fc2 <- relu_blob5
I1228 07:32:30.880934   158 net.cpp:408] fc2 -> fc_blob2
I1228 07:32:30.881073   158 net.cpp:150] Setting up fc2
I1228 07:32:30.881079   158 net.cpp:157] Top shape: 64 84 (5376)
I1228 07:32:30.881083   158 net.cpp:165] Memory required for data: 63705344
I1228 07:32:30.881086   158 layer_factory.hpp:77] Creating layer relu6
I1228 07:32:30.881093   158 net.cpp:100] Creating Layer relu6
I1228 07:32:30.881095   158 net.cpp:434] relu6 <- fc_blob2
I1228 07:32:30.881099   158 net.cpp:408] relu6 -> relu_blob6
I1228 07:32:30.881103   158 net.cpp:150] Setting up relu6
I1228 07:32:30.881108   158 net.cpp:157] Top shape: 64 84 (5376)
I1228 07:32:30.881110   158 net.cpp:165] Memory required for data: 63726848
I1228 07:32:30.881114   158 layer_factory.hpp:77] Creating layer fc3
I1228 07:32:30.881119   158 net.cpp:100] Creating Layer fc3
I1228 07:32:30.881124   158 net.cpp:434] fc3 <- relu_blob6
I1228 07:32:30.881127   158 net.cpp:408] fc3 -> fc_blob3
I1228 07:32:30.881139   158 net.cpp:150] Setting up fc3
I1228 07:32:30.881145   158 net.cpp:157] Top shape: 64 2 (128)
I1228 07:32:30.881147   158 net.cpp:165] Memory required for data: 63727360
I1228 07:32:30.881151   158 layer_factory.hpp:77] Creating layer loss
I1228 07:32:30.881160   158 net.cpp:100] Creating Layer loss
I1228 07:32:30.881162   158 net.cpp:434] loss <- fc_blob3
I1228 07:32:30.881165   158 net.cpp:434] loss <- label
I1228 07:32:30.881171   158 net.cpp:408] loss -> loss
I1228 07:32:30.881181   158 layer_factory.hpp:77] Creating layer loss
…
I1228 07:32:30.881932   158 net.cpp:322] The NetState phase (1) differed from the phase (0) specified by a rule in layer nexpa
I1228 07:32:30.882006   158 net.cpp:58] Initializing net from parameters: 
name: "LeNet32x40_3"
state {
  phase: TEST
}
layer {
  name: "nexpa"
  type: "Data"
  top: "data1"
  top: "label"
  include {
    phase: TEST
  }
  transform_param {
    scale: 0.00390625
    mirror: true
  }
  data_param {
    source: "/workspace/parkingclassifier-caffe/20191228_data/20191228_data_test_lmdb"
    batch_size: 100
    backend: LMDB
  }
}
layer {
  name: "conv1"
  type: "Convolution"
  bottom: "data1"
  top: "conv_blob1"
  convolution_param {
    num_output: 50
    bias_term: true
    kernel_size: 3
    group: 1
    stride: 1
    weight_filler {
      type: "xavier"
    }
    bias_filler {
      type: "constant"
    }
    dilation: 1
  }
}
layer {
  name: "relu1"
  type: "ReLU"
  bottom: "conv_blob1"
  top: "relu_blob1"
}
layer {
  name: "conv2"
  type: "Convolution"
  bottom: "relu_blob1"
  top: "conv_blob2"
  convolution_param {
    num_output: 50
    bias_term: true
    kernel_size: 3
    group: 1
    stride: 1
    weight_filler {
      type: "xavier"
    }
    bias_filler {
      type: "constant"
    }
    dilation: 1
  }
}
layer {
  name: "relu2"
  type: "ReLU"
  bottom: "conv_blob2"
  top: "relu_blob2"
}
layer {
  name: "max_pool1"
  type: "Pooling"
  bottom: "relu_blob2"
  top: "max_pool_blob1"
  pooling_param {
    pool: MAX
    kernel_size: 2
    stride: 2
  }
}
layer {
  name: "conv3"
  type: "Convolution"
  bottom: "max_pool_blob1"
  top: "conv_blob3"
  convolution_param {
    num_output: 28
    bias_term: true
    kernel_size: 3
    group: 1
    stride: 1
    weight_filler {
      type: "xavier"
    }
    bias_filler {
      type: "constant"
    }
    dilation: 1
  }
}
layer {
  name: "relu3"
  type: "ReLU"
  bottom: "conv_blob3"
  top: "relu_blob3"
}
layer {
  name: "conv4"
  type: "Convolution"
  bottom: "relu_blob3"
  top: "conv_blob4"
  convolution_param {
    num_output: 28
    bias_term: true
    kernel_size: 3
    group: 1
    stride: 1
    weight_filler {
      type: "xavier"
    }
    bias_filler {
      type: "constant"
    }
    dilation: 1
  }
}
layer {
  name: "relu4"
  type: "ReLU"
  bottom: "conv_blob4"
  top: "relu_blob4"
}
layer {
  name: "max_pool2"
  type: "Pooling"
  bottom: "relu_blob4"
  top: "max_pool_blob2"
  pooling_param {
    pool: MAX
    kernel_size: 2
    stride: 2
  }
}
layer {
  name: "fc1"
  type: "InnerProduct"
  bottom: "max_pool_blob2"
  top: "fc_blob1"
  inner_product_param {
    num_output: 256
    bias_term: true
    weight_filler {
      type: "xavier"
    }
    bias_filler {
      type: "constant"
    }
  }
}
layer {
  name: "relu5"
  type: "ReLU"
  bottom: "fc_blob1"
  top: "relu_blob5"
}
layer {
  name: "fc2"
  type: "InnerProduct"
  bottom: "relu_blob5"
  top: "fc_blob2"
  inner_product_param {
    num_output: 84
    bias_term: true
    weight_filler {
      type: "xavier"
    }
    bias_filler {
      type: "constant"
    }
  }
}
layer {
  name: "relu6"
  type: "ReLU"
  bottom: "fc_blob2"
  top: "relu_blob6"
}
layer {
  name: "fc3"
  type: "InnerProduct"
  bottom: "relu_blob6"
  top: "fc_blob3"
  inner_product_param {
    num_output: 2
    bias_term: true
    weight_filler {
      type: "xavier"
    }
    bias_filler {
      type: "constant"
    }
  }
}
layer {
  name: "accuracy"
  type: "Accuracy"
  bottom: "fc_blob3"
  bottom: "label"
  top: "accuracy"
  include {
    phase: TEST
  }
}
layer {
  name: "loss"
  type: "SoftmaxWithLoss"
  bottom: "fc_blob3"
  bottom: "label"
  top: "loss"
}
I1228 07:32:30.882076   158 layer_factory.hpp:77] Creating layer nexpa
I1228 07:32:30.882155   158 net.cpp:100] Creating Layer nexpa
I1228 07:32:30.882161   158 net.cpp:408] nexpa -> data1
I1228 07:32:30.882169   158 net.cpp:408] nexpa -> label
I1228 07:32:30.882205   162 db_lmdb.cpp:35] Opened lmdb /workspace/parkingclassifier-caffe/20191228_data/20191228_data_test_lmdb
I1228 07:32:30.882299   158 data_layer.cpp:41] output data size: 100,1,32,40
I1228 07:32:30.883100   158 net.cpp:150] Setting up nexpa
I1228 07:32:30.883107   158 net.cpp:157] Top shape: 100 1 32 40 (128000)
I1228 07:32:30.883111   158 net.cpp:157] Top shape: 100 (100)
I1228 07:32:30.883116   158 net.cpp:165] Memory required for data: 512400
I1228 07:32:30.883118   158 layer_factory.hpp:77] Creating layer label_nexpa_1_split
I1228 07:32:30.883124   158 net.cpp:100] Creating Layer label_nexpa_1_split
I1228 07:32:30.883127   158 net.cpp:434] label_nexpa_1_split <- label
I1228 07:32:30.883132   158 net.cpp:408] label_nexpa_1_split -> label_nexpa_1_split_0
I1228 07:32:30.883138   158 net.cpp:408] label_nexpa_1_split -> label_nexpa_1_split_1
I1228 07:32:30.883147   158 net.cpp:150] Setting up label_nexpa_1_split
I1228 07:32:30.883152   158 net.cpp:157] Top shape: 100 (100)
I1228 07:32:30.883155   158 net.cpp:157] Top shape: 100 (100)
I1228 07:32:30.883158   158 net.cpp:165] Memory required for data: 513200
I1228 07:32:30.883162   158 layer_factory.hpp:77] Creating layer conv1
I1228 07:32:30.883169   158 net.cpp:100] Creating Layer conv1
I1228 07:32:30.883174   158 net.cpp:434] conv1 <- data1
I1228 07:32:30.883178   158 net.cpp:408] conv1 -> conv_blob1
I1228 07:32:30.883199   158 net.cpp:150] Setting up conv1
I1228 07:32:30.883205   158 net.cpp:157] Top shape: 100 50 30 38 (5700000)
I1228 07:32:30.883208   158 net.cpp:165] Memory required for data: 23313200
I1228 07:32:30.883215   158 layer_factory.hpp:77] Creating layer relu1
I1228 07:32:30.883222   158 net.cpp:100] Creating Layer relu1
I1228 07:32:30.883226   158 net.cpp:434] relu1 <- conv_blob1
I1228 07:32:30.883230   158 net.cpp:408] relu1 -> relu_blob1
I1228 07:32:30.883235   158 net.cpp:150] Setting up relu1
I1228 07:32:30.883239   158 net.cpp:157] Top shape: 100 50 30 38 (5700000)
I1228 07:32:30.883242   158 net.cpp:165] Memory required for data: 46113200
I1228 07:32:30.883245   158 layer_factory.hpp:77] Creating layer conv2
I1228 07:32:30.883252   158 net.cpp:100] Creating Layer conv2
I1228 07:32:30.883257   158 net.cpp:434] conv2 <- relu_blob1
I1228 07:32:30.883262   158 net.cpp:408] conv2 -> conv_blob2
I1228 07:32:30.883414   158 net.cpp:150] Setting up conv2
I1228 07:32:30.883420   158 net.cpp:157] Top shape: 100 50 28 36 (5040000)
I1228 07:32:30.883424   158 net.cpp:165] Memory required for data: 66273200
I1228 07:32:30.883430   158 layer_factory.hpp:77] Creating layer relu2
I1228 07:32:30.883443   158 net.cpp:100] Creating Layer relu2
I1228 07:32:30.883447   158 net.cpp:434] relu2 <- conv_blob2
I1228 07:32:30.883451   158 net.cpp:408] relu2 -> relu_blob2
I1228 07:32:30.883456   158 net.cpp:150] Setting up relu2
I1228 07:32:30.883460   158 net.cpp:157] Top shape: 100 50 28 36 (5040000)
I1228 07:32:30.883463   158 net.cpp:165] Memory required for data: 86433200
I1228 07:32:30.883466   158 layer_factory.hpp:77] Creating layer max_pool1
I1228 07:32:30.883472   158 net.cpp:100] Creating Layer max_pool1
I1228 07:32:30.883476   158 net.cpp:434] max_pool1 <- relu_blob2
I1228 07:32:30.883479   158 net.cpp:408] max_pool1 -> max_pool_blob1
I1228 07:32:30.883486   158 net.cpp:150] Setting up max_pool1
I1228 07:32:30.883491   158 net.cpp:157] Top shape: 100 50 14 18 (1260000)
I1228 07:32:30.883494   158 net.cpp:165] Memory required for data: 91473200
I1228 07:32:30.883497   158 layer_factory.hpp:77] Creating layer conv3
I1228 07:32:30.883502   158 net.cpp:100] Creating Layer conv3
I1228 07:32:30.883505   158 net.cpp:434] conv3 <- max_pool_blob1
I1228 07:32:30.883512   158 net.cpp:408] conv3 -> conv_blob3
I1228 07:32:30.883601   158 net.cpp:150] Setting up conv3
I1228 07:32:30.883606   158 net.cpp:157] Top shape: 100 28 12 16 (537600)
I1228 07:32:30.883610   158 net.cpp:165] Memory required for data: 93623600
I1228 07:32:30.883615   158 layer_factory.hpp:77] Creating layer relu3
I1228 07:32:30.883620   158 net.cpp:100] Creating Layer relu3
I1228 07:32:30.883622   158 net.cpp:434] relu3 <- conv_blob3
I1228 07:32:30.883626   158 net.cpp:408] relu3 -> relu_blob3
I1228 07:32:30.883631   158 net.cpp:150] Setting up relu3
I1228 07:32:30.883635   158 net.cpp:157] Top shape: 100 28 12 16 (537600)
I1228 07:32:30.883637   158 net.cpp:165] Memory required for data: 95774000
I1228 07:32:30.883641   158 layer_factory.hpp:77] Creating layer conv4
I1228 07:32:30.883648   158 net.cpp:100] Creating Layer conv4
I1228 07:32:30.883651   158 net.cpp:434] conv4 <- relu_blob3
I1228 07:32:30.883656   158 net.cpp:408] conv4 -> conv_blob4
I1228 07:32:30.883713   158 net.cpp:150] Setting up conv4
I1228 07:32:30.883720   158 net.cpp:157] Top shape: 100 28 10 14 (392000)
I1228 07:32:30.883723   158 net.cpp:165] Memory required for data: 97342000
I1228 07:32:30.883728   158 layer_factory.hpp:77] Creating layer relu4
I1228 07:32:30.883733   158 net.cpp:100] Creating Layer relu4
I1228 07:32:30.883735   158 net.cpp:434] relu4 <- conv_blob4
I1228 07:32:30.883738   158 net.cpp:408] relu4 -> relu_blob4
I1228 07:32:30.883744   158 net.cpp:150] Setting up relu4
I1228 07:32:30.883747   158 net.cpp:157] Top shape: 100 28 10 14 (392000)
I1228 07:32:30.883750   158 net.cpp:165] Memory required for data: 98910000
I1228 07:32:30.883752   158 layer_factory.hpp:77] Creating layer max_pool2
I1228 07:32:30.883759   158 net.cpp:100] Creating Layer max_pool2
I1228 07:32:30.883761   158 net.cpp:434] max_pool2 <- relu_blob4
I1228 07:32:30.883766   158 net.cpp:408] max_pool2 -> max_pool_blob2
I1228 07:32:30.883771   158 net.cpp:150] Setting up max_pool2
I1228 07:32:30.883775   158 net.cpp:157] Top shape: 100 28 5 7 (98000)
I1228 07:32:30.883778   158 net.cpp:165] Memory required for data: 99302000
I1228 07:32:30.883781   158 layer_factory.hpp:77] Creating layer fc1
I1228 07:32:30.883785   158 net.cpp:100] Creating Layer fc1
I1228 07:32:30.883790   158 net.cpp:434] fc1 <- max_pool_blob2
I1228 07:32:30.883795   158 net.cpp:408] fc1 -> fc_blob1
I1228 07:32:30.885358   158 net.cpp:150] Setting up fc1
I1228 07:32:30.885367   158 net.cpp:157] Top shape: 100 256 (25600)
I1228 07:32:30.885370   158 net.cpp:165] Memory required for data: 99404400
I1228 07:32:30.885376   158 layer_factory.hpp:77] Creating layer relu5
I1228 07:32:30.885382   158 net.cpp:100] Creating Layer relu5
I1228 07:32:30.885386   158 net.cpp:434] relu5 <- fc_blob1
I1228 07:32:30.885390   158 net.cpp:408] relu5 -> relu_blob5
I1228 07:32:30.885396   158 net.cpp:150] Setting up relu5
I1228 07:32:30.885401   158 net.cpp:157] Top shape: 100 256 (25600)
I1228 07:32:30.885413   158 net.cpp:165] Memory required for data: 99506800
I1228 07:32:30.885417   158 layer_factory.hpp:77] Creating layer fc2
I1228 07:32:30.885423   158 net.cpp:100] Creating Layer fc2
I1228 07:32:30.885427   158 net.cpp:434] fc2 <- relu_blob5
I1228 07:32:30.885432   158 net.cpp:408] fc2 -> fc_blob2
I1228 07:32:30.885588   158 net.cpp:150] Setting up fc2
I1228 07:32:30.885597   158 net.cpp:157] Top shape: 100 84 (8400)
I1228 07:32:30.885601   158 net.cpp:165] Memory required for data: 99540400
I1228 07:32:30.885605   158 layer_factory.hpp:77] Creating layer relu6
I1228 07:32:30.885609   158 net.cpp:100] Creating Layer relu6
I1228 07:32:30.885612   158 net.cpp:434] relu6 <- fc_blob2
I1228 07:32:30.885617   158 net.cpp:408] relu6 -> relu_blob6
I1228 07:32:30.885622   158 net.cpp:150] Setting up relu6
I1228 07:32:30.885625   158 net.cpp:157] Top shape: 100 84 (8400)
I1228 07:32:30.885628   158 net.cpp:165] Memory required for data: 99574000
I1228 07:32:30.885630   158 layer_factory.hpp:77] Creating layer fc3
I1228 07:32:30.885640   158 net.cpp:100] Creating Layer fc3
I1228 07:32:30.885648   158 net.cpp:434] fc3 <- relu_blob6
I1228 07:32:30.885653   158 net.cpp:408] fc3 -> fc_blob3
I1228 07:32:30.885663   158 net.cpp:150] Setting up fc3
I1228 07:32:30.885668   158 net.cpp:157] Top shape: 100 2 (200)
I1228 07:32:30.885670   158 net.cpp:165] Memory required for data: 99574800
I1228 07:32:30.885674   158 layer_factory.hpp:77] Creating layer fc_blob3_fc3_0_split
I1228 07:32:30.885679   158 net.cpp:100] Creating Layer fc_blob3_fc3_0_split
I1228 07:32:30.885682   158 net.cpp:434] fc_blob3_fc3_0_split <- fc_blob3
I1228 07:32:30.885687   158 net.cpp:408] fc_blob3_fc3_0_split -> fc_blob3_fc3_0_split_0
I1228 07:32:30.885692   158 net.cpp:408] fc_blob3_fc3_0_split -> fc_blob3_fc3_0_split_1
I1228 07:32:30.885697   158 net.cpp:150] Setting up fc_blob3_fc3_0_split
I1228 07:32:30.885701   158 net.cpp:157] Top shape: 100 2 (200)
I1228 07:32:30.885704   158 net.cpp:157] Top shape: 100 2 (200)
I1228 07:32:30.885707   158 net.cpp:165] Memory required for data: 99576400
I1228 07:32:30.885710   158 layer_factory.hpp:77] Creating layer accuracy
I1228 07:32:30.885715   158 net.cpp:100] Creating Layer accuracy
I1228 07:32:30.885718   158 net.cpp:434] accuracy <- fc_blob3_fc3_0_split_0
I1228 07:32:30.885722   158 net.cpp:434] accuracy <- label_nexpa_1_split_0
I1228 07:32:30.885728   158 net.cpp:408] accuracy -> accuracy
…
